{"modelTopology":{"node":[{"input":[],"attr":{"value":{"tensor":{"floatVal":[],"doubleVal":[],"intVal":[],"stringVal":[],"scomplexVal":[],"int64Val":[],"boolVal":[],"uint32Val":[],"uint64Val":[],"dtype":1,"tensorShape":{"dim":[{"size":"1"},{"size":"1"},{"size":"320"},{"size":"256"}]}}},"dtype":{"type":1}},"name":"image_pooling/Conv2D/merged_input","op":"Const"},{"input":[],"attr":{"value":{"tensor":{"floatVal":[],"doubleVal":[],"intVal":[],"stringVal":[],"scomplexVal":[],"int64Val":[],"boolVal":[],"uint32Val":[],"uint64Val":[],"dtype":1,"tensorShape":{"dim":[{"size":"256"}]}}},"dtype":{"type":1}},"name":"image_pooling/BatchNorm/FusedBatchNorm/Offset","op":"Const"},{"input":[],"attr":{"value":{"tensor":{"floatVal":[],"doubleVal":[],"intVal":[],"stringVal":[],"scomplexVal":[],"int64Val":[],"boolVal":[],"uint32Val":[],"uint64Val":[],"dtype":3,"tensorShape":{"dim":[{"size":"2"}]}}},"dtype":{"type":3}},"name":"ResizeBilinear/size","op":"Const"},{"input":[],"attr":{"value":{"tensor":{"floatVal":[],"doubleVal":[],"intVal":[],"stringVal":[],"scomplexVal":[],"int64Val":[],"boolVal":[],"uint32Val":[],"uint64Val":[],"dtype":1,"tensorShape":{"dim":[{"size":"1"},{"size":"1"},{"size":"160"},{"size":"960"}]}}},"dtype":{"type":1}},"name":"MobilenetV2/expanded_conv_15/expand/Conv2D/merged_input","op":"Const"},{"input":[],"attr":{"value":{"tensor":{"floatVal":[],"doubleVal":[],"intVal":[],"stringVal":[],"scomplexVal":[],"int64Val":[],"boolVal":[],"uint32Val":[],"uint64Val":[],"dtype":1,"tensorShape":{"dim":[{"size":"960"}]}}},"dtype":{"type":1}},"name":"MobilenetV2/expanded_conv_15/expand/BatchNorm/FusedBatchNorm/Offset","op":"Const"},{"input":[],"attr":{"value":{"tensor":{"floatVal":[],"doubleVal":[],"intVal":[],"stringVal":[],"scomplexVal":[],"int64Val":[],"boolVal":[],"uint32Val":[],"uint64Val":[],"dtype":1,"tensorShape":{"dim":[{"size":"3"},{"size":"3"},{"size":"960"},{"size":"1"}]}}},"dtype":{"type":1}},"name":"MobilenetV2/expanded_conv_15/depthwise/depthwise_weights","op":"Const"},{"input":[],"attr":{"value":{"tensor":{"floatVal":[],"doubleVal":[],"intVal":[],"stringVal":[],"scomplexVal":[],"int64Val":[],"boolVal":[],"uint32Val":[],"uint64Val":[],"dtype":1,"tensorShape":{"dim":[{"size":"960"}]}}},"dtype":{"type":1}},"name":"MobilenetV2/expanded_conv_15/depthwise/BatchNorm/FusedBatchNorm/Scaled","op":"Const"},{"input":[],"attr":{"value":{"tensor":{"floatVal":[],"doubleVal":[],"intVal":[],"stringVal":[],"scomplexVal":[],"int64Val":[],"boolVal":[],"uint32Val":[],"uint64Val":[],"dtype":1,"tensorShape":{"dim":[{"size":"960"}]}}},"dtype":{"type":1}},"name":"MobilenetV2/expanded_conv_15/depthwise/BatchNorm/FusedBatchNorm/Offset","op":"Const"},{"input":[],"attr":{"value":{"tensor":{"floatVal":[],"doubleVal":[],"intVal":[],"stringVal":[],"scomplexVal":[],"int64Val":[],"boolVal":[],"uint32Val":[],"uint64Val":[],"dtype":1,"tensorShape":{"dim":[{"size":"1"},{"size":"1"},{"size":"960"},{"size":"160"}]}}},"dtype":{"type":1}},"name":"MobilenetV2/expanded_conv_15/project/Conv2D/merged_input","op":"Const"},{"input":[],"attr":{"value":{"tensor":{"floatVal":[],"doubleVal":[],"intVal":[],"stringVal":[],"scomplexVal":[],"int64Val":[],"boolVal":[],"uint32Val":[],"uint64Val":[],"dtype":1,"tensorShape":{"dim":[{"size":"160"}]}}},"dtype":{"type":1}},"name":"MobilenetV2/expanded_conv_15/project/BatchNorm/FusedBatchNorm/Offset","op":"Const"},{"input":[],"attr":{"value":{"tensor":{"floatVal":[],"doubleVal":[],"intVal":[],"stringVal":[],"scomplexVal":[],"int64Val":[],"boolVal":[],"uint32Val":[],"uint64Val":[],"dtype":1,"tensorShape":{"dim":[{"size":"1"},{"size":"1"},{"size":"160"},{"size":"960"}]}}},"dtype":{"type":1}},"name":"MobilenetV2/expanded_conv_14/expand/Conv2D/merged_input","op":"Const"},{"input":[],"attr":{"value":{"tensor":{"floatVal":[],"doubleVal":[],"intVal":[],"stringVal":[],"scomplexVal":[],"int64Val":[],"boolVal":[],"uint32Val":[],"uint64Val":[],"dtype":1,"tensorShape":{"dim":[{"size":"960"}]}}},"dtype":{"type":1}},"name":"MobilenetV2/expanded_conv_14/expand/BatchNorm/FusedBatchNorm/Offset","op":"Const"},{"input":[],"attr":{"value":{"tensor":{"floatVal":[],"doubleVal":[],"intVal":[],"stringVal":[],"scomplexVal":[],"int64Val":[],"boolVal":[],"uint32Val":[],"uint64Val":[],"dtype":1,"tensorShape":{"dim":[{"size":"3"},{"size":"3"},{"size":"960"},{"size":"1"}]}}},"dtype":{"type":1}},"name":"MobilenetV2/expanded_conv_14/depthwise/depthwise_weights","op":"Const"},{"input":[],"attr":{"value":{"tensor":{"floatVal":[],"doubleVal":[],"intVal":[],"stringVal":[],"scomplexVal":[],"int64Val":[],"boolVal":[],"uint32Val":[],"uint64Val":[],"dtype":1,"tensorShape":{"dim":[{"size":"960"}]}}},"dtype":{"type":1}},"name":"MobilenetV2/expanded_conv_14/depthwise/BatchNorm/FusedBatchNorm/Scaled","op":"Const"},{"input":[],"attr":{"value":{"tensor":{"floatVal":[],"doubleVal":[],"intVal":[],"stringVal":[],"scomplexVal":[],"int64Val":[],"boolVal":[],"uint32Val":[],"uint64Val":[],"dtype":1,"tensorShape":{"dim":[{"size":"960"}]}}},"dtype":{"type":1}},"name":"MobilenetV2/expanded_conv_14/depthwise/BatchNorm/FusedBatchNorm/Offset","op":"Const"},{"input":[],"attr":{"value":{"tensor":{"floatVal":[],"doubleVal":[],"intVal":[],"stringVal":[],"scomplexVal":[],"int64Val":[],"boolVal":[],"uint32Val":[],"uint64Val":[],"dtype":1,"tensorShape":{"dim":[{"size":"1"},{"size":"1"},{"size":"960"},{"size":"160"}]}}},"dtype":{"type":1}},"name":"MobilenetV2/expanded_conv_14/project/Conv2D/merged_input","op":"Const"},{"input":[],"attr":{"value":{"tensor":{"floatVal":[],"doubleVal":[],"intVal":[],"stringVal":[],"scomplexVal":[],"int64Val":[],"boolVal":[],"uint32Val":[],"uint64Val":[],"dtype":1,"tensorShape":{"dim":[{"size":"160"}]}}},"dtype":{"type":1}},"name":"MobilenetV2/expanded_conv_14/project/BatchNorm/FusedBatchNorm/Offset","op":"Const"},{"input":[],"attr":{"dtype":{"type":1},"value":{"tensor":{"floatVal":[],"doubleVal":[],"intVal":[],"stringVal":[],"scomplexVal":[],"int64Val":[],"boolVal":[],"uint32Val":[],"uint64Val":[],"dtype":1,"tensorShape":{"dim":[{"size":"96"}]}}}},"name":"MobilenetV2/expanded_conv_12/project/BatchNorm/FusedBatchNorm/Offset","op":"Const"},{"input":[],"attr":{"value":{"tensor":{"floatVal":[],"doubleVal":[],"intVal":[],"stringVal":[],"scomplexVal":[],"int64Val":[],"boolVal":[],"uint32Val":[],"uint64Val":[],"dtype":1,"tensorShape":{"dim":[{"size":"1"},{"size":"1"},{"size":"96"},{"size":"576"}]}}},"dtype":{"type":1}},"name":"MobilenetV2/expanded_conv_12/expand/Conv2D/merged_input","op":"Const"},{"input":[],"attr":{"value":{"tensor":{"floatVal":[],"doubleVal":[],"intVal":[],"stringVal":[],"scomplexVal":[],"int64Val":[],"boolVal":[],"uint32Val":[],"uint64Val":[],"dtype":1,"tensorShape":{"dim":[{"size":"576"}]}}},"dtype":{"type":1}},"name":"MobilenetV2/expanded_conv_12/expand/BatchNorm/FusedBatchNorm/Offset","op":"Const"},{"input":[],"attr":{"value":{"tensor":{"floatVal":[],"doubleVal":[],"intVal":[],"stringVal":[],"scomplexVal":[],"int64Val":[],"boolVal":[],"uint32Val":[],"uint64Val":[],"dtype":1,"tensorShape":{"dim":[{"size":"3"},{"size":"3"},{"size":"576"},{"size":"1"}]}}},"dtype":{"type":1}},"name":"MobilenetV2/expanded_conv_12/depthwise/depthwise_weights","op":"Const"},{"input":[],"attr":{"value":{"tensor":{"floatVal":[],"doubleVal":[],"intVal":[],"stringVal":[],"scomplexVal":[],"int64Val":[],"boolVal":[],"uint32Val":[],"uint64Val":[],"dtype":1,"tensorShape":{"dim":[{"size":"576"}]}}},"dtype":{"type":1}},"name":"MobilenetV2/expanded_conv_12/depthwise/BatchNorm/FusedBatchNorm/Scaled","op":"Const"},{"input":[],"attr":{"value":{"tensor":{"floatVal":[],"doubleVal":[],"intVal":[],"stringVal":[],"scomplexVal":[],"int64Val":[],"boolVal":[],"uint32Val":[],"uint64Val":[],"dtype":1,"tensorShape":{"dim":[{"size":"576"}]}}},"dtype":{"type":1}},"name":"MobilenetV2/expanded_conv_12/depthwise/BatchNorm/FusedBatchNorm/Offset","op":"Const"},{"input":[],"attr":{"value":{"tensor":{"floatVal":[],"doubleVal":[],"intVal":[],"stringVal":[],"scomplexVal":[],"int64Val":[],"boolVal":[],"uint32Val":[],"uint64Val":[],"dtype":1,"tensorShape":{"dim":[{"size":"1"},{"size":"1"},{"size":"576"},{"size":"96"}]}}},"dtype":{"type":1}},"name":"MobilenetV2/expanded_conv_12/project/Conv2D/merged_input","op":"Const"},{"input":[],"attr":{"value":{"tensor":{"floatVal":[],"doubleVal":[],"intVal":[],"stringVal":[],"scomplexVal":[],"int64Val":[],"boolVal":[],"uint32Val":[],"uint64Val":[],"dtype":1,"tensorShape":{"dim":[{"size":"96"}]}}},"dtype":{"type":1}},"name":"MobilenetV2/expanded_conv_11/project/BatchNorm/FusedBatchNorm/Offset","op":"Const"},{"input":[],"attr":{"value":{"tensor":{"floatVal":[],"doubleVal":[],"intVal":[],"stringVal":[],"scomplexVal":[],"int64Val":[],"boolVal":[],"uint32Val":[],"uint64Val":[],"dtype":1,"tensorShape":{"dim":[{"size":"1"},{"size":"1"},{"size":"96"},{"size":"576"}]}}},"dtype":{"type":1}},"name":"MobilenetV2/expanded_conv_11/expand/Conv2D/merged_input","op":"Const"},{"input":[],"attr":{"value":{"tensor":{"floatVal":[],"doubleVal":[],"intVal":[],"stringVal":[],"scomplexVal":[],"int64Val":[],"boolVal":[],"uint32Val":[],"uint64Val":[],"dtype":1,"tensorShape":{"dim":[{"size":"576"}]}}},"dtype":{"type":1}},"name":"MobilenetV2/expanded_conv_11/expand/BatchNorm/FusedBatchNorm/Offset","op":"Const"},{"input":[],"attr":{"value":{"tensor":{"floatVal":[],"doubleVal":[],"intVal":[],"stringVal":[],"scomplexVal":[],"int64Val":[],"boolVal":[],"uint32Val":[],"uint64Val":[],"dtype":1,"tensorShape":{"dim":[{"size":"3"},{"size":"3"},{"size":"576"},{"size":"1"}]}}},"dtype":{"type":1}},"name":"MobilenetV2/expanded_conv_11/depthwise/depthwise_weights","op":"Const"},{"input":[],"attr":{"value":{"tensor":{"floatVal":[],"doubleVal":[],"intVal":[],"stringVal":[],"scomplexVal":[],"int64Val":[],"boolVal":[],"uint32Val":[],"uint64Val":[],"dtype":1,"tensorShape":{"dim":[{"size":"576"}]}}},"dtype":{"type":1}},"name":"MobilenetV2/expanded_conv_11/depthwise/BatchNorm/FusedBatchNorm/Scaled","op":"Const"},{"input":[],"attr":{"value":{"tensor":{"floatVal":[],"doubleVal":[],"intVal":[],"stringVal":[],"scomplexVal":[],"int64Val":[],"boolVal":[],"uint32Val":[],"uint64Val":[],"dtype":1,"tensorShape":{"dim":[{"size":"576"}]}}},"dtype":{"type":1}},"name":"MobilenetV2/expanded_conv_11/depthwise/BatchNorm/FusedBatchNorm/Offset","op":"Const"},{"input":[],"attr":{"value":{"tensor":{"floatVal":[],"doubleVal":[],"intVal":[],"stringVal":[],"scomplexVal":[],"int64Val":[],"boolVal":[],"uint32Val":[],"uint64Val":[],"dtype":1,"tensorShape":{"dim":[{"size":"1"},{"size":"1"},{"size":"576"},{"size":"96"}]}}},"dtype":{"type":1}},"name":"MobilenetV2/expanded_conv_11/project/Conv2D/merged_input","op":"Const"},{"input":[],"attr":{"value":{"tensor":{"floatVal":[],"doubleVal":[],"intVal":[],"stringVal":[],"scomplexVal":[],"int64Val":[],"boolVal":[],"uint32Val":[],"uint64Val":[],"dtype":1,"tensorShape":{"dim":[{"size":"64"}]}}},"dtype":{"type":1}},"name":"MobilenetV2/expanded_conv_9/project/BatchNorm/FusedBatchNorm/Offset","op":"Const"},{"input":[],"attr":{"value":{"tensor":{"floatVal":[],"doubleVal":[],"intVal":[],"stringVal":[],"scomplexVal":[],"int64Val":[],"boolVal":[],"uint32Val":[],"uint64Val":[],"dtype":1,"tensorShape":{"dim":[{"size":"1"},{"size":"1"},{"size":"64"},{"size":"384"}]}}},"dtype":{"type":1}},"name":"MobilenetV2/expanded_conv_9/expand/Conv2D/merged_input","op":"Const"},{"input":[],"attr":{"dtype":{"type":1},"value":{"tensor":{"floatVal":[],"doubleVal":[],"intVal":[],"stringVal":[],"scomplexVal":[],"int64Val":[],"boolVal":[],"uint32Val":[],"uint64Val":[],"dtype":1,"tensorShape":{"dim":[{"size":"384"}]}}}},"name":"MobilenetV2/expanded_conv_9/expand/BatchNorm/FusedBatchNorm/Offset","op":"Const"},{"input":[],"attr":{"value":{"tensor":{"floatVal":[],"doubleVal":[],"intVal":[],"stringVal":[],"scomplexVal":[],"int64Val":[],"boolVal":[],"uint32Val":[],"uint64Val":[],"dtype":1,"tensorShape":{"dim":[{"size":"3"},{"size":"3"},{"size":"384"},{"size":"1"}]}}},"dtype":{"type":1}},"name":"MobilenetV2/expanded_conv_9/depthwise/depthwise_weights","op":"Const"},{"input":[],"attr":{"value":{"tensor":{"floatVal":[],"doubleVal":[],"intVal":[],"stringVal":[],"scomplexVal":[],"int64Val":[],"boolVal":[],"uint32Val":[],"uint64Val":[],"dtype":1,"tensorShape":{"dim":[{"size":"384"}]}}},"dtype":{"type":1}},"name":"MobilenetV2/expanded_conv_9/depthwise/BatchNorm/FusedBatchNorm/Scaled","op":"Const"},{"input":[],"attr":{"value":{"tensor":{"floatVal":[],"doubleVal":[],"intVal":[],"stringVal":[],"scomplexVal":[],"int64Val":[],"boolVal":[],"uint32Val":[],"uint64Val":[],"dtype":1,"tensorShape":{"dim":[{"size":"384"}]}}},"dtype":{"type":1}},"name":"MobilenetV2/expanded_conv_9/depthwise/BatchNorm/FusedBatchNorm/Offset","op":"Const"},{"input":[],"attr":{"value":{"tensor":{"floatVal":[],"doubleVal":[],"intVal":[],"stringVal":[],"scomplexVal":[],"int64Val":[],"boolVal":[],"uint32Val":[],"uint64Val":[],"dtype":1,"tensorShape":{"dim":[{"size":"1"},{"size":"1"},{"size":"384"},{"size":"64"}]}}},"dtype":{"type":1}},"name":"MobilenetV2/expanded_conv_9/project/Conv2D/merged_input","op":"Const"},{"input":[],"attr":{"value":{"tensor":{"floatVal":[],"doubleVal":[],"intVal":[],"stringVal":[],"scomplexVal":[],"int64Val":[],"boolVal":[],"uint32Val":[],"uint64Val":[],"dtype":1,"tensorShape":{"dim":[{"size":"64"}]}}},"dtype":{"type":1}},"name":"MobilenetV2/expanded_conv_8/project/BatchNorm/FusedBatchNorm/Offset","op":"Const"},{"input":[],"attr":{"value":{"tensor":{"floatVal":[],"doubleVal":[],"intVal":[],"stringVal":[],"scomplexVal":[],"int64Val":[],"boolVal":[],"uint32Val":[],"uint64Val":[],"dtype":1,"tensorShape":{"dim":[{"size":"1"},{"size":"1"},{"size":"64"},{"size":"384"}]}}},"dtype":{"type":1}},"name":"MobilenetV2/expanded_conv_8/expand/Conv2D/merged_input","op":"Const"},{"input":[],"attr":{"value":{"tensor":{"floatVal":[],"doubleVal":[],"intVal":[],"stringVal":[],"scomplexVal":[],"int64Val":[],"boolVal":[],"uint32Val":[],"uint64Val":[],"dtype":1,"tensorShape":{"dim":[{"size":"384"}]}}},"dtype":{"type":1}},"name":"MobilenetV2/expanded_conv_8/expand/BatchNorm/FusedBatchNorm/Offset","op":"Const"},{"input":[],"attr":{"value":{"tensor":{"floatVal":[],"doubleVal":[],"intVal":[],"stringVal":[],"scomplexVal":[],"int64Val":[],"boolVal":[],"uint32Val":[],"uint64Val":[],"dtype":1,"tensorShape":{"dim":[{"size":"3"},{"size":"3"},{"size":"384"},{"size":"1"}]}}},"dtype":{"type":1}},"name":"MobilenetV2/expanded_conv_8/depthwise/depthwise_weights","op":"Const"},{"input":[],"attr":{"value":{"tensor":{"floatVal":[],"doubleVal":[],"intVal":[],"stringVal":[],"scomplexVal":[],"int64Val":[],"boolVal":[],"uint32Val":[],"uint64Val":[],"dtype":1,"tensorShape":{"dim":[{"size":"384"}]}}},"dtype":{"type":1}},"name":"MobilenetV2/expanded_conv_8/depthwise/BatchNorm/FusedBatchNorm/Scaled","op":"Const"},{"input":[],"attr":{"value":{"tensor":{"floatVal":[],"doubleVal":[],"intVal":[],"stringVal":[],"scomplexVal":[],"int64Val":[],"boolVal":[],"uint32Val":[],"uint64Val":[],"dtype":1,"tensorShape":{"dim":[{"size":"384"}]}}},"dtype":{"type":1}},"name":"MobilenetV2/expanded_conv_8/depthwise/BatchNorm/FusedBatchNorm/Offset","op":"Const"},{"input":[],"attr":{"value":{"tensor":{"floatVal":[],"doubleVal":[],"intVal":[],"stringVal":[],"scomplexVal":[],"int64Val":[],"boolVal":[],"uint32Val":[],"uint64Val":[],"dtype":1,"tensorShape":{"dim":[{"size":"1"},{"size":"1"},{"size":"384"},{"size":"64"}]}}},"dtype":{"type":1}},"name":"MobilenetV2/expanded_conv_8/project/Conv2D/merged_input","op":"Const"},{"input":[],"attr":{"dtype":{"type":1},"value":{"tensor":{"floatVal":[],"doubleVal":[],"intVal":[],"stringVal":[],"scomplexVal":[],"int64Val":[],"boolVal":[],"uint32Val":[],"uint64Val":[],"dtype":1,"tensorShape":{"dim":[{"size":"64"}]}}}},"name":"MobilenetV2/expanded_conv_7/project/BatchNorm/FusedBatchNorm/Offset","op":"Const"},{"input":[],"attr":{"value":{"tensor":{"floatVal":[],"doubleVal":[],"intVal":[],"stringVal":[],"scomplexVal":[],"int64Val":[],"boolVal":[],"uint32Val":[],"uint64Val":[],"dtype":1,"tensorShape":{"dim":[{"size":"1"},{"size":"1"},{"size":"64"},{"size":"384"}]}}},"dtype":{"type":1}},"name":"MobilenetV2/expanded_conv_7/expand/Conv2D/merged_input","op":"Const"},{"input":[],"attr":{"value":{"tensor":{"floatVal":[],"doubleVal":[],"intVal":[],"stringVal":[],"scomplexVal":[],"int64Val":[],"boolVal":[],"uint32Val":[],"uint64Val":[],"dtype":1,"tensorShape":{"dim":[{"size":"384"}]}}},"dtype":{"type":1}},"name":"MobilenetV2/expanded_conv_7/expand/BatchNorm/FusedBatchNorm/Offset","op":"Const"},{"input":[],"attr":{"value":{"tensor":{"floatVal":[],"doubleVal":[],"intVal":[],"stringVal":[],"scomplexVal":[],"int64Val":[],"boolVal":[],"uint32Val":[],"uint64Val":[],"dtype":1,"tensorShape":{"dim":[{"size":"3"},{"size":"3"},{"size":"384"},{"size":"1"}]}}},"dtype":{"type":1}},"name":"MobilenetV2/expanded_conv_7/depthwise/depthwise_weights","op":"Const"},{"input":[],"attr":{"value":{"tensor":{"floatVal":[],"doubleVal":[],"intVal":[],"stringVal":[],"scomplexVal":[],"int64Val":[],"boolVal":[],"uint32Val":[],"uint64Val":[],"dtype":1,"tensorShape":{"dim":[{"size":"384"}]}}},"dtype":{"type":1}},"name":"MobilenetV2/expanded_conv_7/depthwise/BatchNorm/FusedBatchNorm/Scaled","op":"Const"},{"input":[],"attr":{"value":{"tensor":{"floatVal":[],"doubleVal":[],"intVal":[],"stringVal":[],"scomplexVal":[],"int64Val":[],"boolVal":[],"uint32Val":[],"uint64Val":[],"dtype":1,"tensorShape":{"dim":[{"size":"384"}]}}},"dtype":{"type":1}},"name":"MobilenetV2/expanded_conv_7/depthwise/BatchNorm/FusedBatchNorm/Offset","op":"Const"},{"input":[],"attr":{"value":{"tensor":{"floatVal":[],"doubleVal":[],"intVal":[],"stringVal":[],"scomplexVal":[],"int64Val":[],"boolVal":[],"uint32Val":[],"uint64Val":[],"dtype":1,"tensorShape":{"dim":[{"size":"1"},{"size":"1"},{"size":"384"},{"size":"64"}]}}},"dtype":{"type":1}},"name":"MobilenetV2/expanded_conv_7/project/Conv2D/merged_input","op":"Const"},{"input":[],"attr":{"dtype":{"type":1},"value":{"tensor":{"floatVal":[],"doubleVal":[],"intVal":[],"stringVal":[],"scomplexVal":[],"int64Val":[],"boolVal":[],"uint32Val":[],"uint64Val":[],"dtype":1,"tensorShape":{"dim":[{"size":"32"}]}}}},"name":"MobilenetV2/expanded_conv_5/project/BatchNorm/FusedBatchNorm/Offset","op":"Const"},{"input":[],"attr":{"value":{"tensor":{"floatVal":[],"doubleVal":[],"intVal":[],"stringVal":[],"scomplexVal":[],"int64Val":[],"boolVal":[],"uint32Val":[],"uint64Val":[],"dtype":1,"tensorShape":{"dim":[{"size":"1"},{"size":"1"},{"size":"32"},{"size":"192"}]}}},"dtype":{"type":1}},"name":"MobilenetV2/expanded_conv_5/expand/Conv2D/merged_input","op":"Const"},{"input":[],"attr":{"value":{"tensor":{"floatVal":[],"doubleVal":[],"intVal":[],"stringVal":[],"scomplexVal":[],"int64Val":[],"boolVal":[],"uint32Val":[],"uint64Val":[],"dtype":1,"tensorShape":{"dim":[{"size":"192"}]}}},"dtype":{"type":1}},"name":"MobilenetV2/expanded_conv_5/expand/BatchNorm/FusedBatchNorm/Offset","op":"Const"},{"input":[],"attr":{"dtype":{"type":1},"value":{"tensor":{"floatVal":[],"doubleVal":[],"intVal":[],"stringVal":[],"scomplexVal":[],"int64Val":[],"boolVal":[],"uint32Val":[],"uint64Val":[],"dtype":1,"tensorShape":{"dim":[{"size":"3"},{"size":"3"},{"size":"192"},{"size":"1"}]}}}},"name":"MobilenetV2/expanded_conv_5/depthwise/depthwise_weights","op":"Const"},{"input":[],"attr":{"dtype":{"type":1},"value":{"tensor":{"floatVal":[],"doubleVal":[],"intVal":[],"stringVal":[],"scomplexVal":[],"int64Val":[],"boolVal":[],"uint32Val":[],"uint64Val":[],"dtype":1,"tensorShape":{"dim":[{"size":"192"}]}}}},"name":"MobilenetV2/expanded_conv_5/depthwise/BatchNorm/FusedBatchNorm/Scaled","op":"Const"},{"input":[],"attr":{"value":{"tensor":{"floatVal":[],"doubleVal":[],"intVal":[],"stringVal":[],"scomplexVal":[],"int64Val":[],"boolVal":[],"uint32Val":[],"uint64Val":[],"dtype":1,"tensorShape":{"dim":[{"size":"192"}]}}},"dtype":{"type":1}},"name":"MobilenetV2/expanded_conv_5/depthwise/BatchNorm/FusedBatchNorm/Offset","op":"Const"},{"input":[],"attr":{"dtype":{"type":1},"value":{"tensor":{"floatVal":[],"doubleVal":[],"intVal":[],"stringVal":[],"scomplexVal":[],"int64Val":[],"boolVal":[],"uint32Val":[],"uint64Val":[],"dtype":1,"tensorShape":{"dim":[{"size":"1"},{"size":"1"},{"size":"192"},{"size":"32"}]}}}},"name":"MobilenetV2/expanded_conv_5/project/Conv2D/merged_input","op":"Const"},{"input":[],"attr":{"value":{"tensor":{"floatVal":[],"doubleVal":[],"intVal":[],"stringVal":[],"scomplexVal":[],"int64Val":[],"boolVal":[],"uint32Val":[],"uint64Val":[],"dtype":1,"tensorShape":{"dim":[{"size":"32"}]}}},"dtype":{"type":1}},"name":"MobilenetV2/expanded_conv_4/project/BatchNorm/FusedBatchNorm/Offset","op":"Const"},{"input":[],"attr":{"value":{"tensor":{"floatVal":[],"doubleVal":[],"intVal":[],"stringVal":[],"scomplexVal":[],"int64Val":[],"boolVal":[],"uint32Val":[],"uint64Val":[],"dtype":1,"tensorShape":{"dim":[{"size":"1"},{"size":"1"},{"size":"32"},{"size":"192"}]}}},"dtype":{"type":1}},"name":"MobilenetV2/expanded_conv_4/expand/Conv2D/merged_input","op":"Const"},{"input":[],"attr":{"value":{"tensor":{"floatVal":[],"doubleVal":[],"intVal":[],"stringVal":[],"scomplexVal":[],"int64Val":[],"boolVal":[],"uint32Val":[],"uint64Val":[],"dtype":1,"tensorShape":{"dim":[{"size":"192"}]}}},"dtype":{"type":1}},"name":"MobilenetV2/expanded_conv_4/expand/BatchNorm/FusedBatchNorm/Offset","op":"Const"},{"input":[],"attr":{"value":{"tensor":{"floatVal":[],"doubleVal":[],"intVal":[],"stringVal":[],"scomplexVal":[],"int64Val":[],"boolVal":[],"uint32Val":[],"uint64Val":[],"dtype":1,"tensorShape":{"dim":[{"size":"3"},{"size":"3"},{"size":"192"},{"size":"1"}]}}},"dtype":{"type":1}},"name":"MobilenetV2/expanded_conv_4/depthwise/depthwise_weights","op":"Const"},{"input":[],"attr":{"dtype":{"type":1},"value":{"tensor":{"floatVal":[],"doubleVal":[],"intVal":[],"stringVal":[],"scomplexVal":[],"int64Val":[],"boolVal":[],"uint32Val":[],"uint64Val":[],"dtype":1,"tensorShape":{"dim":[{"size":"192"}]}}}},"name":"MobilenetV2/expanded_conv_4/depthwise/BatchNorm/FusedBatchNorm/Scaled","op":"Const"},{"input":[],"attr":{"value":{"tensor":{"floatVal":[],"doubleVal":[],"intVal":[],"stringVal":[],"scomplexVal":[],"int64Val":[],"boolVal":[],"uint32Val":[],"uint64Val":[],"dtype":1,"tensorShape":{"dim":[{"size":"192"}]}}},"dtype":{"type":1}},"name":"MobilenetV2/expanded_conv_4/depthwise/BatchNorm/FusedBatchNorm/Offset","op":"Const"},{"input":[],"attr":{"value":{"tensor":{"floatVal":[],"doubleVal":[],"intVal":[],"stringVal":[],"scomplexVal":[],"int64Val":[],"boolVal":[],"uint32Val":[],"uint64Val":[],"dtype":1,"tensorShape":{"dim":[{"size":"1"},{"size":"1"},{"size":"192"},{"size":"32"}]}}},"dtype":{"type":1}},"name":"MobilenetV2/expanded_conv_4/project/Conv2D/merged_input","op":"Const"},{"input":[],"attr":{"value":{"tensor":{"floatVal":[],"doubleVal":[],"intVal":[],"stringVal":[],"scomplexVal":[],"int64Val":[],"boolVal":[],"uint32Val":[],"uint64Val":[],"dtype":1,"tensorShape":{"dim":[{"size":"24"}]}}},"dtype":{"type":1}},"name":"MobilenetV2/expanded_conv_2/project/BatchNorm/FusedBatchNorm/Offset","op":"Const"},{"input":[],"attr":{"value":{"tensor":{"floatVal":[],"doubleVal":[],"intVal":[],"stringVal":[],"scomplexVal":[],"int64Val":[],"boolVal":[],"uint32Val":[],"uint64Val":[],"dtype":1,"tensorShape":{"dim":[{"size":"1"},{"size":"1"},{"size":"144"},{"size":"24"}]}}},"dtype":{"type":1}},"name":"MobilenetV2/expanded_conv_2/project/Conv2D/merged_input","op":"Const"},{"input":[],"attr":{"value":{"tensor":{"floatVal":[],"doubleVal":[],"intVal":[],"stringVal":[],"scomplexVal":[],"int64Val":[],"boolVal":[],"uint32Val":[],"uint64Val":[],"dtype":1,"tensorShape":{"dim":[{"size":"1"},{"size":"1"},{"size":"24"},{"size":"144"}]}}},"dtype":{"type":1}},"name":"MobilenetV2/expanded_conv_3/expand/Conv2D/merged_input","op":"Const"},{"input":[],"attr":{"value":{"tensor":{"floatVal":[],"doubleVal":[],"intVal":[],"stringVal":[],"scomplexVal":[],"int64Val":[],"boolVal":[],"uint32Val":[],"uint64Val":[],"dtype":1,"tensorShape":{"dim":[{"size":"144"}]}}},"dtype":{"type":1}},"name":"MobilenetV2/expanded_conv_3/expand/BatchNorm/FusedBatchNorm/Offset","op":"Const"},{"input":[],"attr":{"value":{"tensor":{"floatVal":[],"doubleVal":[],"intVal":[],"stringVal":[],"scomplexVal":[],"int64Val":[],"boolVal":[],"uint32Val":[],"uint64Val":[],"dtype":1,"tensorShape":{"dim":[{"size":"3"},{"size":"3"},{"size":"144"},{"size":"1"}]}}},"dtype":{"type":1}},"name":"MobilenetV2/expanded_conv_3/depthwise/depthwise_weights","op":"Const"},{"input":[],"attr":{"value":{"tensor":{"floatVal":[],"doubleVal":[],"intVal":[],"stringVal":[],"scomplexVal":[],"int64Val":[],"boolVal":[],"uint32Val":[],"uint64Val":[],"dtype":1,"tensorShape":{"dim":[{"size":"144"}]}}},"dtype":{"type":1}},"name":"MobilenetV2/expanded_conv_3/depthwise/BatchNorm/FusedBatchNorm/Scaled","op":"Const"},{"input":[],"attr":{"value":{"tensor":{"floatVal":[],"doubleVal":[],"intVal":[],"stringVal":[],"scomplexVal":[],"int64Val":[],"boolVal":[],"uint32Val":[],"uint64Val":[],"dtype":1,"tensorShape":{"dim":[{"size":"144"}]}}},"dtype":{"type":1}},"name":"MobilenetV2/expanded_conv_3/depthwise/BatchNorm/FusedBatchNorm/Offset","op":"Const"},{"input":[],"attr":{"value":{"tensor":{"floatVal":[],"doubleVal":[],"intVal":[],"stringVal":[],"scomplexVal":[],"int64Val":[],"boolVal":[],"uint32Val":[],"uint64Val":[],"dtype":1,"tensorShape":{"dim":[{"size":"1"},{"size":"1"},{"size":"144"},{"size":"32"}]}}},"dtype":{"type":1}},"name":"MobilenetV2/expanded_conv_3/project/Conv2D/merged_input","op":"Const"},{"input":[],"attr":{"value":{"tensor":{"floatVal":[],"doubleVal":[],"intVal":[],"stringVal":[],"scomplexVal":[],"int64Val":[],"boolVal":[],"uint32Val":[],"uint64Val":[],"dtype":1,"tensorShape":{"dim":[{"size":"32"}]}}},"dtype":{"type":1}},"name":"MobilenetV2/expanded_conv_3/project/BatchNorm/FusedBatchNorm/Offset","op":"Const"},{"input":[],"attr":{"value":{"tensor":{"floatVal":[],"doubleVal":[],"intVal":[],"stringVal":[],"scomplexVal":[],"int64Val":[],"boolVal":[],"uint32Val":[],"uint64Val":[],"dtype":1,"tensorShape":{"dim":[{"size":"1"},{"size":"1"},{"size":"32"},{"size":"192"}]}}},"dtype":{"type":1}},"name":"MobilenetV2/expanded_conv_6/expand/Conv2D/merged_input","op":"Const"},{"input":[],"attr":{"dtype":{"type":1},"value":{"tensor":{"floatVal":[],"doubleVal":[],"intVal":[],"stringVal":[],"scomplexVal":[],"int64Val":[],"boolVal":[],"uint32Val":[],"uint64Val":[],"dtype":1,"tensorShape":{"dim":[{"size":"192"}]}}}},"name":"MobilenetV2/expanded_conv_6/expand/BatchNorm/FusedBatchNorm/Offset","op":"Const"},{"input":[],"attr":{"value":{"tensor":{"floatVal":[],"doubleVal":[],"intVal":[],"stringVal":[],"scomplexVal":[],"int64Val":[],"boolVal":[],"uint32Val":[],"uint64Val":[],"dtype":1,"tensorShape":{"dim":[{"size":"3"},{"size":"3"},{"size":"192"},{"size":"1"}]}}},"dtype":{"type":1}},"name":"MobilenetV2/expanded_conv_6/depthwise/depthwise_weights","op":"Const"},{"input":[],"attr":{"dtype":{"type":1},"value":{"tensor":{"floatVal":[],"doubleVal":[],"intVal":[],"stringVal":[],"scomplexVal":[],"int64Val":[],"boolVal":[],"uint32Val":[],"uint64Val":[],"dtype":1,"tensorShape":{"dim":[{"size":"192"}]}}}},"name":"MobilenetV2/expanded_conv_6/depthwise/BatchNorm/FusedBatchNorm/Scaled","op":"Const"},{"input":[],"attr":{"value":{"tensor":{"floatVal":[],"doubleVal":[],"intVal":[],"stringVal":[],"scomplexVal":[],"int64Val":[],"boolVal":[],"uint32Val":[],"uint64Val":[],"dtype":1,"tensorShape":{"dim":[{"size":"192"}]}}},"dtype":{"type":1}},"name":"MobilenetV2/expanded_conv_6/depthwise/BatchNorm/FusedBatchNorm/Offset","op":"Const"},{"input":[],"attr":{"value":{"tensor":{"floatVal":[],"doubleVal":[],"intVal":[],"stringVal":[],"scomplexVal":[],"int64Val":[],"boolVal":[],"uint32Val":[],"uint64Val":[],"dtype":1,"tensorShape":{"dim":[{"size":"1"},{"size":"1"},{"size":"192"},{"size":"64"}]}}},"dtype":{"type":1}},"name":"MobilenetV2/expanded_conv_6/project/Conv2D/merged_input","op":"Const"},{"input":[],"attr":{"value":{"tensor":{"floatVal":[],"doubleVal":[],"intVal":[],"stringVal":[],"scomplexVal":[],"int64Val":[],"boolVal":[],"uint32Val":[],"uint64Val":[],"dtype":1,"tensorShape":{"dim":[{"size":"64"}]}}},"dtype":{"type":1}},"name":"MobilenetV2/expanded_conv_6/project/BatchNorm/FusedBatchNorm/Offset","op":"Const"},{"input":[],"attr":{"value":{"tensor":{"floatVal":[],"doubleVal":[],"intVal":[],"stringVal":[],"scomplexVal":[],"int64Val":[],"boolVal":[],"uint32Val":[],"uint64Val":[],"dtype":1,"tensorShape":{"dim":[{"size":"1"},{"size":"1"},{"size":"64"},{"size":"384"}]}}},"dtype":{"type":1}},"name":"MobilenetV2/expanded_conv_10/expand/Conv2D/merged_input","op":"Const"},{"input":[],"attr":{"value":{"tensor":{"floatVal":[],"doubleVal":[],"intVal":[],"stringVal":[],"scomplexVal":[],"int64Val":[],"boolVal":[],"uint32Val":[],"uint64Val":[],"dtype":1,"tensorShape":{"dim":[{"size":"384"}]}}},"dtype":{"type":1}},"name":"MobilenetV2/expanded_conv_10/expand/BatchNorm/FusedBatchNorm/Offset","op":"Const"},{"input":[],"attr":{"value":{"tensor":{"floatVal":[],"doubleVal":[],"intVal":[],"stringVal":[],"scomplexVal":[],"int64Val":[],"boolVal":[],"uint32Val":[],"uint64Val":[],"dtype":1,"tensorShape":{"dim":[{"size":"3"},{"size":"3"},{"size":"384"},{"size":"1"}]}}},"dtype":{"type":1}},"name":"MobilenetV2/expanded_conv_10/depthwise/depthwise_weights","op":"Const"},{"input":[],"attr":{"value":{"tensor":{"floatVal":[],"doubleVal":[],"intVal":[],"stringVal":[],"scomplexVal":[],"int64Val":[],"boolVal":[],"uint32Val":[],"uint64Val":[],"dtype":1,"tensorShape":{"dim":[{"size":"384"}]}}},"dtype":{"type":1}},"name":"MobilenetV2/expanded_conv_10/depthwise/BatchNorm/FusedBatchNorm/Scaled","op":"Const"},{"input":[],"attr":{"value":{"tensor":{"floatVal":[],"doubleVal":[],"intVal":[],"stringVal":[],"scomplexVal":[],"int64Val":[],"boolVal":[],"uint32Val":[],"uint64Val":[],"dtype":1,"tensorShape":{"dim":[{"size":"384"}]}}},"dtype":{"type":1}},"name":"MobilenetV2/expanded_conv_10/depthwise/BatchNorm/FusedBatchNorm/Offset","op":"Const"},{"input":[],"attr":{"value":{"tensor":{"floatVal":[],"doubleVal":[],"intVal":[],"stringVal":[],"scomplexVal":[],"int64Val":[],"boolVal":[],"uint32Val":[],"uint64Val":[],"dtype":1,"tensorShape":{"dim":[{"size":"1"},{"size":"1"},{"size":"384"},{"size":"96"}]}}},"dtype":{"type":1}},"name":"MobilenetV2/expanded_conv_10/project/Conv2D/merged_input","op":"Const"},{"input":[],"attr":{"value":{"tensor":{"floatVal":[],"doubleVal":[],"intVal":[],"stringVal":[],"scomplexVal":[],"int64Val":[],"boolVal":[],"uint32Val":[],"uint64Val":[],"dtype":1,"tensorShape":{"dim":[{"size":"96"}]}}},"dtype":{"type":1}},"name":"MobilenetV2/expanded_conv_10/project/BatchNorm/FusedBatchNorm/Offset","op":"Const"},{"input":[],"attr":{"dtype":{"type":1},"value":{"tensor":{"floatVal":[],"doubleVal":[],"intVal":[],"stringVal":[],"scomplexVal":[],"int64Val":[],"boolVal":[],"uint32Val":[],"uint64Val":[],"dtype":1,"tensorShape":{"dim":[{"size":"1"},{"size":"1"},{"size":"96"},{"size":"576"}]}}}},"name":"MobilenetV2/expanded_conv_13/expand/Conv2D/merged_input","op":"Const"},{"input":[],"attr":{"dtype":{"type":1},"value":{"tensor":{"floatVal":[],"doubleVal":[],"intVal":[],"stringVal":[],"scomplexVal":[],"int64Val":[],"boolVal":[],"uint32Val":[],"uint64Val":[],"dtype":1,"tensorShape":{"dim":[{"size":"576"}]}}}},"name":"MobilenetV2/expanded_conv_13/expand/BatchNorm/FusedBatchNorm/Offset","op":"Const"},{"input":[],"attr":{"value":{"tensor":{"floatVal":[],"doubleVal":[],"intVal":[],"stringVal":[],"scomplexVal":[],"int64Val":[],"boolVal":[],"uint32Val":[],"uint64Val":[],"dtype":1,"tensorShape":{"dim":[{"size":"3"},{"size":"3"},{"size":"576"},{"size":"1"}]}}},"dtype":{"type":1}},"name":"MobilenetV2/expanded_conv_13/depthwise/depthwise_weights","op":"Const"},{"input":[],"attr":{"value":{"tensor":{"floatVal":[],"doubleVal":[],"intVal":[],"stringVal":[],"scomplexVal":[],"int64Val":[],"boolVal":[],"uint32Val":[],"uint64Val":[],"dtype":1,"tensorShape":{"dim":[{"size":"576"}]}}},"dtype":{"type":1}},"name":"MobilenetV2/expanded_conv_13/depthwise/BatchNorm/FusedBatchNorm/Scaled","op":"Const"},{"input":[],"attr":{"value":{"tensor":{"floatVal":[],"doubleVal":[],"intVal":[],"stringVal":[],"scomplexVal":[],"int64Val":[],"boolVal":[],"uint32Val":[],"uint64Val":[],"dtype":1,"tensorShape":{"dim":[{"size":"576"}]}}},"dtype":{"type":1}},"name":"MobilenetV2/expanded_conv_13/depthwise/BatchNorm/FusedBatchNorm/Offset","op":"Const"},{"input":[],"attr":{"dtype":{"type":1},"value":{"tensor":{"floatVal":[],"doubleVal":[],"intVal":[],"stringVal":[],"scomplexVal":[],"int64Val":[],"boolVal":[],"uint32Val":[],"uint64Val":[],"dtype":1,"tensorShape":{"dim":[{"size":"1"},{"size":"1"},{"size":"576"},{"size":"160"}]}}}},"name":"MobilenetV2/expanded_conv_13/project/Conv2D/merged_input","op":"Const"},{"input":[],"attr":{"value":{"tensor":{"floatVal":[],"doubleVal":[],"intVal":[],"stringVal":[],"scomplexVal":[],"int64Val":[],"boolVal":[],"uint32Val":[],"uint64Val":[],"dtype":1,"tensorShape":{"dim":[{"size":"160"}]}}},"dtype":{"type":1}},"name":"MobilenetV2/expanded_conv_13/project/BatchNorm/FusedBatchNorm/Offset","op":"Const"},{"input":[],"attr":{"value":{"tensor":{"floatVal":[],"doubleVal":[],"intVal":[],"stringVal":[],"scomplexVal":[],"int64Val":[],"boolVal":[],"uint32Val":[],"uint64Val":[],"dtype":1,"tensorShape":{"dim":[{"size":"1"},{"size":"1"},{"size":"160"},{"size":"960"}]}}},"dtype":{"type":1}},"name":"MobilenetV2/expanded_conv_16/expand/Conv2D/merged_input","op":"Const"},{"input":[],"attr":{"value":{"tensor":{"floatVal":[],"doubleVal":[],"intVal":[],"stringVal":[],"scomplexVal":[],"int64Val":[],"boolVal":[],"uint32Val":[],"uint64Val":[],"dtype":1,"tensorShape":{"dim":[{"size":"960"}]}}},"dtype":{"type":1}},"name":"MobilenetV2/expanded_conv_16/expand/BatchNorm/FusedBatchNorm/Offset","op":"Const"},{"input":[],"attr":{"value":{"tensor":{"floatVal":[],"doubleVal":[],"intVal":[],"stringVal":[],"scomplexVal":[],"int64Val":[],"boolVal":[],"uint32Val":[],"uint64Val":[],"dtype":3,"tensorShape":{"dim":[{"size":"2"},{"size":"2"}]}}},"dtype":{"type":3}},"name":"MobilenetV2/expanded_conv_15/depthwise/depthwise/SpaceToBatchND/paddings","op":"Const"},{"input":[],"attr":{"value":{"tensor":{"floatVal":[],"doubleVal":[],"intVal":[],"stringVal":[],"scomplexVal":[],"int64Val":[],"boolVal":[],"uint32Val":[],"uint64Val":[],"dtype":1,"tensorShape":{"dim":[{"size":"3"},{"size":"3"},{"size":"960"},{"size":"1"}]}}},"dtype":{"type":1}},"name":"MobilenetV2/expanded_conv_16/depthwise/depthwise_weights","op":"Const"},{"input":[],"attr":{"dtype":{"type":3},"value":{"tensor":{"floatVal":[],"doubleVal":[],"intVal":[],"stringVal":[],"scomplexVal":[],"int64Val":[],"boolVal":[],"uint32Val":[],"uint64Val":[],"dtype":3,"tensorShape":{"dim":[{"size":"2"}]}}}},"name":"MobilenetV2/expanded_conv_15/depthwise/depthwise/SpaceToBatchND/block_shape","op":"Const"},{"input":[],"attr":{"value":{"tensor":{"floatVal":[],"doubleVal":[],"intVal":[],"stringVal":[],"scomplexVal":[],"int64Val":[],"boolVal":[],"uint32Val":[],"uint64Val":[],"dtype":3,"tensorShape":{"dim":[{"size":"2"},{"size":"2"}]}}},"dtype":{"type":3}},"name":"MobilenetV2/expanded_conv_15/depthwise/depthwise/BatchToSpaceND/crops","op":"Const"},{"input":[],"attr":{"value":{"tensor":{"floatVal":[],"doubleVal":[],"intVal":[],"stringVal":[],"scomplexVal":[],"int64Val":[],"boolVal":[],"uint32Val":[],"uint64Val":[],"dtype":1,"tensorShape":{"dim":[{"size":"960"}]}}},"dtype":{"type":1}},"name":"MobilenetV2/expanded_conv_16/depthwise/BatchNorm/FusedBatchNorm/Scaled","op":"Const"},{"input":[],"attr":{"value":{"tensor":{"floatVal":[],"doubleVal":[],"intVal":[],"stringVal":[],"scomplexVal":[],"int64Val":[],"boolVal":[],"uint32Val":[],"uint64Val":[],"dtype":1,"tensorShape":{"dim":[{"size":"960"}]}}},"dtype":{"type":1}},"name":"MobilenetV2/expanded_conv_16/depthwise/BatchNorm/FusedBatchNorm/Offset","op":"Const"},{"input":[],"attr":{"value":{"tensor":{"floatVal":[],"doubleVal":[],"intVal":[],"stringVal":[],"scomplexVal":[],"int64Val":[],"boolVal":[],"uint32Val":[],"uint64Val":[],"dtype":1,"tensorShape":{"dim":[{"size":"1"},{"size":"1"},{"size":"960"},{"size":"320"}]}}},"dtype":{"type":1}},"name":"MobilenetV2/expanded_conv_16/project/Conv2D/merged_input","op":"Const"},{"input":[],"attr":{"value":{"tensor":{"floatVal":[],"doubleVal":[],"intVal":[],"stringVal":[],"scomplexVal":[],"int64Val":[],"boolVal":[],"uint32Val":[],"uint64Val":[],"dtype":1,"tensorShape":{"dim":[{"size":"320"}]}}},"dtype":{"type":1}},"name":"MobilenetV2/expanded_conv_16/project/BatchNorm/FusedBatchNorm/Offset","op":"Const"},{"input":[],"attr":{"value":{"tensor":{"floatVal":[],"doubleVal":[],"intVal":[],"stringVal":[],"scomplexVal":[],"int64Val":[],"boolVal":[],"uint32Val":[],"uint64Val":[],"dtype":1,"tensorShape":{"dim":[{"size":"1"},{"size":"1"},{"size":"320"},{"size":"256"}]}}},"dtype":{"type":1}},"name":"aspp0/Conv2D/merged_input","op":"Const"},{"input":[],"attr":{"value":{"tensor":{"floatVal":[],"doubleVal":[],"intVal":[],"stringVal":[],"scomplexVal":[],"int64Val":[],"boolVal":[],"uint32Val":[],"uint64Val":[],"dtype":1,"tensorShape":{"dim":[{"size":"256"}]}}},"dtype":{"type":1}},"name":"aspp0/BatchNorm/FusedBatchNorm/Offset","op":"Const"},{"input":[],"attr":{"dtype":{"type":1},"value":{"tensor":{"floatVal":[],"doubleVal":[],"intVal":[],"stringVal":[],"scomplexVal":[],"int64Val":[],"boolVal":[],"uint32Val":[],"uint64Val":[],"dtype":1,"tensorShape":{"dim":[{"size":"1"},{"size":"1"},{"size":"512"},{"size":"256"}]}}}},"name":"concat_projection/Conv2D/merged_input","op":"Const"},{"input":[],"attr":{"value":{"tensor":{"floatVal":[],"doubleVal":[],"intVal":[],"stringVal":[],"scomplexVal":[],"int64Val":[],"boolVal":[],"uint32Val":[],"uint64Val":[],"dtype":1,"tensorShape":{"dim":[{"size":"256"}]}}},"dtype":{"type":1}},"name":"concat_projection/BatchNorm/FusedBatchNorm/Offset","op":"Const"},{"input":[],"attr":{"value":{"tensor":{"floatVal":[],"doubleVal":[],"intVal":[],"stringVal":[],"scomplexVal":[],"int64Val":[],"boolVal":[],"uint32Val":[],"uint64Val":[],"dtype":1,"tensorShape":{"dim":[]}}},"dtype":{"type":1}},"name":"mul/x","op":"Const"},{"input":[],"attr":{"value":{"tensor":{"floatVal":[],"doubleVal":[],"intVal":[],"stringVal":[],"scomplexVal":[],"int64Val":[],"boolVal":[],"uint32Val":[],"uint64Val":[],"dtype":3,"tensorShape":{"dim":[]}}},"dtype":{"type":3}},"name":"sub/x","op":"Const"},{"input":[],"attr":{"dtype":{"type":3},"value":{"tensor":{"floatVal":[],"doubleVal":[],"intVal":[],"stringVal":[],"scomplexVal":[],"int64Val":[],"boolVal":[],"uint32Val":[],"uint64Val":[],"dtype":3,"tensorShape":{"dim":[]}}}},"name":"sub_1/x","op":"Const"},{"input":[],"attr":{"value":{"tensor":{"floatVal":[],"doubleVal":[],"intVal":[],"stringVal":[],"scomplexVal":[],"int64Val":[],"boolVal":[],"uint32Val":[],"uint64Val":[],"dtype":3,"tensorShape":{"dim":[{"size":"2"}]}}},"dtype":{"type":3}},"name":"stack_2","op":"Const"},{"input":[],"attr":{"dtype":{"type":1},"value":{"tensor":{"floatVal":[],"doubleVal":[],"intVal":[],"stringVal":[],"scomplexVal":[],"int64Val":[],"boolVal":[],"uint32Val":[],"uint64Val":[],"dtype":1,"tensorShape":{"dim":[{"size":"1"},{"size":"1"},{"size":"3"}]}}}},"name":"Reshape","op":"Const"},{"input":[],"attr":{"value":{"tensor":{"floatVal":[],"doubleVal":[],"intVal":[],"stringVal":[],"scomplexVal":[],"int64Val":[],"boolVal":[],"uint32Val":[],"uint64Val":[],"dtype":3,"tensorShape":{"dim":[]}}},"dtype":{"type":3}},"name":"stack/0","op":"Const"},{"input":[],"attr":{"dtype":{"type":1},"value":{"tensor":{"floatVal":[],"doubleVal":[],"intVal":[],"stringVal":[],"scomplexVal":[],"int64Val":[],"boolVal":[],"uint32Val":[],"uint64Val":[],"dtype":1,"tensorShape":{"dim":[]}}}},"name":"sub_7/y","op":"Const"},{"input":[],"attr":{"value":{"tensor":{"floatVal":[],"doubleVal":[],"intVal":[],"stringVal":[],"scomplexVal":[],"int64Val":[],"boolVal":[],"uint32Val":[],"uint64Val":[],"dtype":1,"tensorShape":{"dim":[{"size":"3"},{"size":"3"},{"size":"3"},{"size":"32"}]}}},"dtype":{"type":1}},"name":"MobilenetV2/Conv/Conv2D/merged_input","op":"Const"},{"input":[],"attr":{"value":{"tensor":{"floatVal":[],"doubleVal":[],"intVal":[],"stringVal":[],"scomplexVal":[],"int64Val":[],"boolVal":[],"uint32Val":[],"uint64Val":[],"dtype":1,"tensorShape":{"dim":[{"size":"32"}]}}},"dtype":{"type":1}},"name":"MobilenetV2/Conv/BatchNorm/FusedBatchNorm/Offset","op":"Const"},{"input":[],"attr":{"value":{"tensor":{"floatVal":[],"doubleVal":[],"intVal":[],"stringVal":[],"scomplexVal":[],"int64Val":[],"boolVal":[],"uint32Val":[],"uint64Val":[],"dtype":1,"tensorShape":{"dim":[{"size":"3"},{"size":"3"},{"size":"32"},{"size":"1"}]}}},"dtype":{"type":1}},"name":"MobilenetV2/expanded_conv/depthwise/depthwise_weights","op":"Const"},{"input":[],"attr":{"value":{"tensor":{"floatVal":[],"doubleVal":[],"intVal":[],"stringVal":[],"scomplexVal":[],"int64Val":[],"boolVal":[],"uint32Val":[],"uint64Val":[],"dtype":1,"tensorShape":{"dim":[{"size":"32"}]}}},"dtype":{"type":1}},"name":"MobilenetV2/expanded_conv/depthwise/BatchNorm/FusedBatchNorm/Scaled","op":"Const"},{"input":[],"attr":{"value":{"tensor":{"floatVal":[],"doubleVal":[],"intVal":[],"stringVal":[],"scomplexVal":[],"int64Val":[],"boolVal":[],"uint32Val":[],"uint64Val":[],"dtype":1,"tensorShape":{"dim":[{"size":"32"}]}}},"dtype":{"type":1}},"name":"MobilenetV2/expanded_conv/depthwise/BatchNorm/FusedBatchNorm/Offset","op":"Const"},{"input":[],"attr":{"value":{"tensor":{"floatVal":[],"doubleVal":[],"intVal":[],"stringVal":[],"scomplexVal":[],"int64Val":[],"boolVal":[],"uint32Val":[],"uint64Val":[],"dtype":1,"tensorShape":{"dim":[{"size":"1"},{"size":"1"},{"size":"32"},{"size":"16"}]}}},"dtype":{"type":1}},"name":"MobilenetV2/expanded_conv/project/Conv2D/merged_input","op":"Const"},{"input":[],"attr":{"value":{"tensor":{"floatVal":[],"doubleVal":[],"intVal":[],"stringVal":[],"scomplexVal":[],"int64Val":[],"boolVal":[],"uint32Val":[],"uint64Val":[],"dtype":1,"tensorShape":{"dim":[{"size":"16"}]}}},"dtype":{"type":1}},"name":"MobilenetV2/expanded_conv/project/BatchNorm/FusedBatchNorm/Offset","op":"Const"},{"input":[],"attr":{"value":{"tensor":{"floatVal":[],"doubleVal":[],"intVal":[],"stringVal":[],"scomplexVal":[],"int64Val":[],"boolVal":[],"uint32Val":[],"uint64Val":[],"dtype":1,"tensorShape":{"dim":[{"size":"1"},{"size":"1"},{"size":"16"},{"size":"96"}]}}},"dtype":{"type":1}},"name":"MobilenetV2/expanded_conv_1/expand/Conv2D/merged_input","op":"Const"},{"input":[],"attr":{"value":{"tensor":{"floatVal":[],"doubleVal":[],"intVal":[],"stringVal":[],"scomplexVal":[],"int64Val":[],"boolVal":[],"uint32Val":[],"uint64Val":[],"dtype":1,"tensorShape":{"dim":[{"size":"96"}]}}},"dtype":{"type":1}},"name":"MobilenetV2/expanded_conv_1/expand/BatchNorm/FusedBatchNorm/Offset","op":"Const"},{"input":[],"attr":{"value":{"tensor":{"floatVal":[],"doubleVal":[],"intVal":[],"stringVal":[],"scomplexVal":[],"int64Val":[],"boolVal":[],"uint32Val":[],"uint64Val":[],"dtype":1,"tensorShape":{"dim":[{"size":"3"},{"size":"3"},{"size":"96"},{"size":"1"}]}}},"dtype":{"type":1}},"name":"MobilenetV2/expanded_conv_1/depthwise/depthwise_weights","op":"Const"},{"input":[],"attr":{"value":{"tensor":{"floatVal":[],"doubleVal":[],"intVal":[],"stringVal":[],"scomplexVal":[],"int64Val":[],"boolVal":[],"uint32Val":[],"uint64Val":[],"dtype":1,"tensorShape":{"dim":[{"size":"96"}]}}},"dtype":{"type":1}},"name":"MobilenetV2/expanded_conv_1/depthwise/BatchNorm/FusedBatchNorm/Scaled","op":"Const"},{"input":[],"attr":{"value":{"tensor":{"floatVal":[],"doubleVal":[],"intVal":[],"stringVal":[],"scomplexVal":[],"int64Val":[],"boolVal":[],"uint32Val":[],"uint64Val":[],"dtype":1,"tensorShape":{"dim":[{"size":"96"}]}}},"dtype":{"type":1}},"name":"MobilenetV2/expanded_conv_1/depthwise/BatchNorm/FusedBatchNorm/Offset","op":"Const"},{"input":[],"attr":{"dtype":{"type":1},"value":{"tensor":{"floatVal":[],"doubleVal":[],"intVal":[],"stringVal":[],"scomplexVal":[],"int64Val":[],"boolVal":[],"uint32Val":[],"uint64Val":[],"dtype":1,"tensorShape":{"dim":[{"size":"1"},{"size":"1"},{"size":"96"},{"size":"24"}]}}}},"name":"MobilenetV2/expanded_conv_1/project/Conv2D/merged_input","op":"Const"},{"input":[],"attr":{"value":{"tensor":{"floatVal":[],"doubleVal":[],"intVal":[],"stringVal":[],"scomplexVal":[],"int64Val":[],"boolVal":[],"uint32Val":[],"uint64Val":[],"dtype":1,"tensorShape":{"dim":[{"size":"24"}]}}},"dtype":{"type":1}},"name":"MobilenetV2/expanded_conv_1/project/BatchNorm/FusedBatchNorm/Offset","op":"Const"},{"input":[],"attr":{"value":{"tensor":{"floatVal":[],"doubleVal":[],"intVal":[],"stringVal":[],"scomplexVal":[],"int64Val":[],"boolVal":[],"uint32Val":[],"uint64Val":[],"dtype":1,"tensorShape":{"dim":[{"size":"1"},{"size":"1"},{"size":"24"},{"size":"144"}]}}},"dtype":{"type":1}},"name":"MobilenetV2/expanded_conv_2/expand/Conv2D/merged_input","op":"Const"},{"input":[],"attr":{"value":{"tensor":{"floatVal":[],"doubleVal":[],"intVal":[],"stringVal":[],"scomplexVal":[],"int64Val":[],"boolVal":[],"uint32Val":[],"uint64Val":[],"dtype":1,"tensorShape":{"dim":[{"size":"144"}]}}},"dtype":{"type":1}},"name":"MobilenetV2/expanded_conv_2/expand/BatchNorm/FusedBatchNorm/Offset","op":"Const"},{"input":[],"attr":{"value":{"tensor":{"floatVal":[],"doubleVal":[],"intVal":[],"stringVal":[],"scomplexVal":[],"int64Val":[],"boolVal":[],"uint32Val":[],"uint64Val":[],"dtype":1,"tensorShape":{"dim":[{"size":"3"},{"size":"3"},{"size":"144"},{"size":"1"}]}}},"dtype":{"type":1}},"name":"MobilenetV2/expanded_conv_2/depthwise/depthwise_weights","op":"Const"},{"input":[],"attr":{"value":{"tensor":{"floatVal":[],"doubleVal":[],"intVal":[],"stringVal":[],"scomplexVal":[],"int64Val":[],"boolVal":[],"uint32Val":[],"uint64Val":[],"dtype":1,"tensorShape":{"dim":[{"size":"144"}]}}},"dtype":{"type":1}},"name":"MobilenetV2/expanded_conv_2/depthwise/BatchNorm/FusedBatchNorm/Scaled","op":"Const"},{"input":[],"attr":{"dtype":{"type":1},"value":{"tensor":{"floatVal":[],"doubleVal":[],"intVal":[],"stringVal":[],"scomplexVal":[],"int64Val":[],"boolVal":[],"uint32Val":[],"uint64Val":[],"dtype":1,"tensorShape":{"dim":[{"size":"144"}]}}}},"name":"MobilenetV2/expanded_conv_2/depthwise/BatchNorm/FusedBatchNorm/Offset","op":"Const"},{"input":[],"attr":{"value":{"tensor":{"floatVal":[],"doubleVal":[],"intVal":[],"stringVal":[],"scomplexVal":[],"int64Val":[],"boolVal":[],"uint32Val":[],"uint64Val":[],"dtype":1,"tensorShape":{"dim":[{"size":"1"},{"size":"1"},{"size":"144"},{"size":"48"}]}}},"dtype":{"type":1}},"name":"decoder/feature_projection0/Conv2D/merged_input","op":"Const"},{"input":[],"attr":{"value":{"tensor":{"floatVal":[],"doubleVal":[],"intVal":[],"stringVal":[],"scomplexVal":[],"int64Val":[],"boolVal":[],"uint32Val":[],"uint64Val":[],"dtype":1,"tensorShape":{"dim":[{"size":"48"}]}}},"dtype":{"type":1}},"name":"decoder/feature_projection0/BatchNorm/FusedBatchNorm/Offset","op":"Const"},{"input":[],"attr":{"value":{"tensor":{"floatVal":[],"doubleVal":[],"intVal":[],"stringVal":[],"scomplexVal":[],"int64Val":[],"boolVal":[],"uint32Val":[],"uint64Val":[],"dtype":1,"tensorShape":{"dim":[{"size":"3"},{"size":"3"},{"size":"304"},{"size":"1"}]}}},"dtype":{"type":1}},"name":"decoder/decoder_conv0_depthwise/depthwise_weights","op":"Const"},{"input":[],"attr":{"value":{"tensor":{"floatVal":[],"doubleVal":[],"intVal":[],"stringVal":[],"scomplexVal":[],"int64Val":[],"boolVal":[],"uint32Val":[],"uint64Val":[],"dtype":1,"tensorShape":{"dim":[{"size":"304"}]}}},"dtype":{"type":1}},"name":"decoder/decoder_conv0_depthwise/BatchNorm/FusedBatchNorm/Scaled","op":"Const"},{"input":[],"attr":{"value":{"tensor":{"floatVal":[],"doubleVal":[],"intVal":[],"stringVal":[],"scomplexVal":[],"int64Val":[],"boolVal":[],"uint32Val":[],"uint64Val":[],"dtype":1,"tensorShape":{"dim":[{"size":"304"}]}}},"dtype":{"type":1}},"name":"decoder/decoder_conv0_depthwise/BatchNorm/FusedBatchNorm/Offset","op":"Const"},{"input":[],"attr":{"value":{"tensor":{"floatVal":[],"doubleVal":[],"intVal":[],"stringVal":[],"scomplexVal":[],"int64Val":[],"boolVal":[],"uint32Val":[],"uint64Val":[],"dtype":1,"tensorShape":{"dim":[{"size":"1"},{"size":"1"},{"size":"304"},{"size":"256"}]}}},"dtype":{"type":1}},"name":"decoder/decoder_conv0_pointwise/Conv2D/merged_input","op":"Const"},{"input":[],"attr":{"value":{"tensor":{"floatVal":[],"doubleVal":[],"intVal":[],"stringVal":[],"scomplexVal":[],"int64Val":[],"boolVal":[],"uint32Val":[],"uint64Val":[],"dtype":1,"tensorShape":{"dim":[{"size":"256"}]}}},"dtype":{"type":1}},"name":"decoder/decoder_conv0_pointwise/BatchNorm/FusedBatchNorm/Offset","op":"Const"},{"input":[],"attr":{"dtype":{"type":1},"value":{"tensor":{"floatVal":[],"doubleVal":[],"intVal":[],"stringVal":[],"scomplexVal":[],"int64Val":[],"boolVal":[],"uint32Val":[],"uint64Val":[],"dtype":1,"tensorShape":{"dim":[{"size":"3"},{"size":"3"},{"size":"256"},{"size":"1"}]}}}},"name":"decoder/decoder_conv1_depthwise/depthwise_weights","op":"Const"},{"input":[],"attr":{"value":{"tensor":{"floatVal":[],"doubleVal":[],"intVal":[],"stringVal":[],"scomplexVal":[],"int64Val":[],"boolVal":[],"uint32Val":[],"uint64Val":[],"dtype":1,"tensorShape":{"dim":[{"size":"256"}]}}},"dtype":{"type":1}},"name":"decoder/decoder_conv1_depthwise/BatchNorm/FusedBatchNorm/Scaled","op":"Const"},{"input":[],"attr":{"value":{"tensor":{"floatVal":[],"doubleVal":[],"intVal":[],"stringVal":[],"scomplexVal":[],"int64Val":[],"boolVal":[],"uint32Val":[],"uint64Val":[],"dtype":1,"tensorShape":{"dim":[{"size":"256"}]}}},"dtype":{"type":1}},"name":"decoder/decoder_conv1_depthwise/BatchNorm/FusedBatchNorm/Offset","op":"Const"},{"input":[],"attr":{"value":{"tensor":{"floatVal":[],"doubleVal":[],"intVal":[],"stringVal":[],"scomplexVal":[],"int64Val":[],"boolVal":[],"uint32Val":[],"uint64Val":[],"dtype":1,"tensorShape":{"dim":[{"size":"1"},{"size":"1"},{"size":"256"},{"size":"256"}]}}},"dtype":{"type":1}},"name":"decoder/decoder_conv1_pointwise/Conv2D/merged_input","op":"Const"},{"input":[],"attr":{"value":{"tensor":{"floatVal":[],"doubleVal":[],"intVal":[],"stringVal":[],"scomplexVal":[],"int64Val":[],"boolVal":[],"uint32Val":[],"uint64Val":[],"dtype":1,"tensorShape":{"dim":[{"size":"256"}]}}},"dtype":{"type":1}},"name":"decoder/decoder_conv1_pointwise/BatchNorm/FusedBatchNorm/Offset","op":"Const"},{"input":[],"attr":{"value":{"tensor":{"floatVal":[],"doubleVal":[],"intVal":[],"stringVal":[],"scomplexVal":[],"int64Val":[],"boolVal":[],"uint32Val":[],"uint64Val":[],"dtype":1,"tensorShape":{"dim":[{"size":"1"},{"size":"1"},{"size":"256"},{"size":"3"}]}}},"dtype":{"type":1}},"name":"logits/semantic/weights","op":"Const"},{"input":[],"attr":{"value":{"tensor":{"floatVal":[],"doubleVal":[],"intVal":[],"stringVal":[],"scomplexVal":[],"int64Val":[],"boolVal":[],"uint32Val":[],"uint64Val":[],"dtype":1,"tensorShape":{"dim":[{"size":"3"}]}}},"dtype":{"type":1}},"name":"logits/semantic/biases","op":"Const"},{"input":[],"attr":{"value":{"tensor":{"floatVal":[],"doubleVal":[],"intVal":[],"stringVal":[],"scomplexVal":[],"int64Val":[],"boolVal":[],"uint32Val":[],"uint64Val":[],"dtype":3,"tensorShape":{"dim":[{"size":"2"}]}}},"dtype":{"type":3}},"name":"decoder/ResizeBilinear/size","op":"Const"},{"input":[],"attr":{"value":{"tensor":{"floatVal":[],"doubleVal":[],"intVal":[],"stringVal":[],"scomplexVal":[],"int64Val":[],"boolVal":[],"uint32Val":[],"uint64Val":[],"dtype":3,"tensorShape":{"dim":[{"size":"2"}]}}},"dtype":{"type":3}},"name":"strided_slice_6","op":"Const"},{"input":[],"attr":{"value":{"tensor":{"floatVal":[],"doubleVal":[],"intVal":[],"stringVal":[],"scomplexVal":[],"int64Val":[],"boolVal":[],"uint32Val":[],"uint64Val":[],"dtype":3,"tensorShape":{"dim":[{"size":"3"}]}}},"dtype":{"type":3}},"name":"Slice/begin","op":"Const"},{"input":[],"attr":{"value":{"tensor":{"floatVal":[],"doubleVal":[],"intVal":[],"stringVal":[],"scomplexVal":[],"int64Val":[],"boolVal":[],"uint32Val":[],"uint64Val":[],"dtype":3,"tensorShape":{"dim":[]}}},"dtype":{"type":3}},"name":"Slice/size/0","op":"Const"},{"input":[],"attr":{"dtype":{"type":3},"value":{"tensor":{"floatVal":[],"doubleVal":[],"intVal":[],"stringVal":[],"scomplexVal":[],"int64Val":[],"boolVal":[],"uint32Val":[],"uint64Val":[],"dtype":3,"tensorShape":{"dim":[{"size":"1"}]}}}},"name":"strided_slice_1/stack","op":"Const"},{"input":[],"attr":{"value":{"tensor":{"floatVal":[],"doubleVal":[],"intVal":[],"stringVal":[],"scomplexVal":[],"int64Val":[],"boolVal":[],"uint32Val":[],"uint64Val":[],"dtype":3,"tensorShape":{"dim":[{"size":"1"}]}}},"dtype":{"type":3}},"name":"strided_slice_2/stack_1","op":"Const"},{"input":[],"attr":{"value":{"tensor":{"floatVal":[],"doubleVal":[],"intVal":[],"stringVal":[],"scomplexVal":[],"int64Val":[],"boolVal":[],"uint32Val":[],"uint64Val":[],"dtype":3,"tensorShape":{"dim":[]}}},"dtype":{"type":3}},"name":"concat/axis","op":"Const"},{"input":[],"attr":{"dtype":{"type":4},"shape":{"shape":{"dim":[{"size":"1"},{"size":"-1"},{"size":"-1"},{"size":"3"}]}}},"name":"ImageTensor","op":"Placeholder"},{"input":[],"attr":{"value":{"tensor":{"floatVal":[],"doubleVal":[],"intVal":[],"stringVal":[],"scomplexVal":[],"int64Val":[],"boolVal":[],"uint32Val":[],"uint64Val":[],"dtype":3,"tensorShape":{"dim":[{"size":"1"}]}}},"dtype":{"type":3}},"name":"strided_slice/stack_1","op":"Const"},{"input":[],"attr":{"value":{"tensor":{"floatVal":[],"doubleVal":[],"intVal":[],"stringVal":[],"scomplexVal":[],"int64Val":[],"boolVal":[],"uint32Val":[],"uint64Val":[],"dtype":3,"tensorShape":{"dim":[{"size":"1"}]}}},"dtype":{"type":3}},"name":"strided_slice_2/stack","op":"Const"},{"input":["ImageTensor"],"attr":{"squeeze_dims":{"list":{"s":[],"i":["0"],"f":[],"b":[],"type":[],"shape":[],"tensor":[],"func":[]}},"T":{"type":4}},"name":"Squeeze","op":"Squeeze"},{"input":["ImageTensor"],"attr":{"T":{"type":4},"out_type":{"type":3}},"name":"Shape","op":"Shape"},{"input":["Squeeze"],"attr":{"DstT":{"type":1},"SrcT":{"type":4},"Truncate":{"b":false}},"name":"Cast","op":"Cast"},{"input":["Squeeze"],"attr":{"T":{"type":4},"out_type":{"type":3}},"name":"Shape_3","op":"Shape"},{"input":["Shape","strided_slice_2/stack","strided_slice/stack_1","strided_slice_2/stack"],"attr":{"shrink_axis_mask":{"i":"0"},"begin_mask":{"i":"0"},"ellipsis_mask":{"i":"0"},"new_axis_mask":{"i":"0"},"end_mask":{"i":"0"},"T":{"type":3},"Index":{"type":3}},"name":"strided_slice","op":"StridedSlice"},{"input":["Cast"],"attr":{"T":{"type":1},"out_type":{"type":3}},"name":"Shape_1","op":"Shape"},{"input":["Cast","Reshape"],"attr":{"T":{"type":1}},"name":"sub_2","op":"Sub"},{"input":["Shape_3","strided_slice_1/stack","strided_slice_2/stack_1","strided_slice_2/stack"],"attr":{"new_axis_mask":{"i":"0"},"end_mask":{"i":"0"},"T":{"type":3},"Index":{"type":3},"shrink_axis_mask":{"i":"0"},"begin_mask":{"i":"1"},"ellipsis_mask":{"i":"0"}},"name":"strided_slice_5","op":"StridedSlice"},{"input":["Shape_1","strided_slice_1/stack","strided_slice_2/stack","strided_slice_2/stack"],"attr":{"shrink_axis_mask":{"i":"1"},"ellipsis_mask":{"i":"0"},"begin_mask":{"i":"0"},"new_axis_mask":{"i":"0"},"end_mask":{"i":"0"},"T":{"type":3},"Index":{"type":3}},"name":"strided_slice_1","op":"StridedSlice"},{"input":["Shape_1","strided_slice_2/stack","strided_slice_2/stack_1","strided_slice_2/stack"],"attr":{"begin_mask":{"i":"0"},"ellipsis_mask":{"i":"0"},"new_axis_mask":{"i":"0"},"end_mask":{"i":"0"},"Index":{"type":3},"T":{"type":3},"shrink_axis_mask":{"i":"1"}},"name":"strided_slice_2","op":"StridedSlice"},{"input":["sub_2"],"attr":{"out_type":{"type":3},"T":{"type":1}},"name":"Shape_2","op":"Shape"},{"input":["strided_slice_5","strided_slice_1/stack","strided_slice_2/stack","strided_slice_2/stack"],"attr":{"T":{"type":3},"Index":{"type":3},"shrink_axis_mask":{"i":"1"},"ellipsis_mask":{"i":"0"},"begin_mask":{"i":"0"},"new_axis_mask":{"i":"0"},"end_mask":{"i":"0"}},"name":"strided_slice_7","op":"StridedSlice"},{"input":["strided_slice_5","strided_slice_2/stack","strided_slice_2/stack_1","strided_slice_2/stack"],"attr":{"shrink_axis_mask":{"i":"1"},"begin_mask":{"i":"0"},"ellipsis_mask":{"i":"0"},"new_axis_mask":{"i":"0"},"end_mask":{"i":"0"},"T":{"type":3},"Index":{"type":3}},"name":"strided_slice_8","op":"StridedSlice"},{"input":["sub/x","strided_slice_1"],"attr":{"T":{"type":3}},"name":"sub","op":"Sub"},{"input":["sub_1/x","strided_slice_2"],"attr":{"T":{"type":3}},"name":"sub_1","op":"Sub"},{"input":["Shape_2","strided_slice_1/stack","strided_slice_2/stack","strided_slice_2/stack"],"attr":{"shrink_axis_mask":{"i":"1"},"begin_mask":{"i":"0"},"ellipsis_mask":{"i":"0"},"new_axis_mask":{"i":"0"},"end_mask":{"i":"0"},"Index":{"type":3},"T":{"type":3}},"name":"strided_slice_3","op":"StridedSlice"},{"input":["Shape_2","strided_slice_2/stack","strided_slice_2/stack_1","strided_slice_2/stack"],"attr":{"Index":{"type":3},"T":{"type":3},"shrink_axis_mask":{"i":"1"},"begin_mask":{"i":"0"},"ellipsis_mask":{"i":"0"},"new_axis_mask":{"i":"0"},"end_mask":{"i":"0"}},"name":"strided_slice_4","op":"StridedSlice"},{"input":["Slice/size/0","strided_slice_7","strided_slice_8"],"attr":{"T":{"type":3},"axis":{"i":"0"},"N":{"i":"3"}},"name":"Slice/size","op":"Pack"},{"input":["sub","stack/0"],"attr":{"T":{"type":3}},"name":"Maximum","op":"Maximum"},{"input":["sub_1","stack/0"],"attr":{"T":{"type":3}},"name":"Maximum_1","op":"Maximum"},{"input":["strided_slice_1","Maximum"],"attr":{"T":{"type":3}},"name":"add","op":"Add"},{"input":["strided_slice_2","Maximum_1"],"attr":{"T":{"type":3}},"name":"add_1","op":"Add"},{"input":["add","strided_slice_3"],"attr":{"T":{"type":3}},"name":"sub_6","op":"Sub"},{"input":["add_1","strided_slice_4"],"attr":{"T":{"type":3}},"name":"sub_4","op":"Sub"},{"input":["stack/0","sub_6"],"attr":{"T":{"type":3},"axis":{"i":"0"},"N":{"i":"2"}},"name":"stack","op":"Pack"},{"input":["stack/0","sub_4"],"attr":{"N":{"i":"2"},"T":{"type":3},"axis":{"i":"0"}},"name":"stack_1","op":"Pack"},{"input":["stack","stack_1","stack_2"],"attr":{"T":{"type":3},"axis":{"i":"0"},"N":{"i":"3"}},"name":"stack_3","op":"Pack"},{"input":["sub_2","stack_3"],"attr":{"T":{"type":1},"Tpaddings":{"type":3}},"name":"Pad","op":"Pad"},{"input":["Pad","Reshape"],"attr":{"T":{"type":1}},"name":"add_2","op":"Add"},{"input":["add_2","stack/0"],"attr":{"T":{"type":1},"Tdim":{"type":3}},"name":"ExpandDims","op":"ExpandDims"},{"input":["mul/x","ExpandDims"],"attr":{"T":{"type":1}},"name":"mul","op":"Mul"},{"input":["mul","sub_7/y"],"attr":{"T":{"type":1}},"name":"sub_7","op":"Sub"},{"input":["sub_7","MobilenetV2/Conv/Conv2D/merged_input"],"attr":{"data_format":{"s":[78,72,87,67]},"strides":{"list":{"s":[],"i":["1","2","2","1"],"f":[],"b":[],"type":[],"shape":[],"tensor":[],"func":[]}},"use_cudnn_on_gpu":{"b":true},"padding":{"s":[83,65,77,69]},"dilations":{"list":{"s":[],"i":["1","1","1","1"],"f":[],"b":[],"type":[],"shape":[],"tensor":[],"func":[]}},"T":{"type":1}},"name":"MobilenetV2/Conv/BatchNorm/FusedBatchNorm/Mul","op":"Conv2D"},{"input":["MobilenetV2/Conv/BatchNorm/FusedBatchNorm/Mul","MobilenetV2/Conv/BatchNorm/FusedBatchNorm/Offset"],"attr":{"T":{"type":1}},"name":"MobilenetV2/Conv/BatchNorm/FusedBatchNorm","op":"Add"},{"input":["MobilenetV2/Conv/BatchNorm/FusedBatchNorm"],"attr":{"T":{"type":1}},"name":"MobilenetV2/Conv/Relu6","op":"Relu6"},{"input":["MobilenetV2/Conv/Relu6","MobilenetV2/expanded_conv/depthwise/depthwise_weights"],"attr":{"padding":{"s":[83,65,77,69]},"dilations":{"list":{"s":[],"i":["1","1","1","1"],"f":[],"b":[],"type":[],"shape":[],"tensor":[],"func":[]}},"T":{"type":1},"data_format":{"s":[78,72,87,67]},"strides":{"list":{"s":[],"i":["1","1","1","1"],"f":[],"b":[],"type":[],"shape":[],"tensor":[],"func":[]}}},"name":"MobilenetV2/expanded_conv/depthwise/depthwise","op":"DepthwiseConv2dNative"},{"input":["MobilenetV2/expanded_conv/depthwise/depthwise","MobilenetV2/expanded_conv/depthwise/BatchNorm/FusedBatchNorm/Scaled"],"attr":{"T":{"type":1}},"name":"MobilenetV2/expanded_conv/depthwise/BatchNorm/FusedBatchNorm/Mul","op":"Mul"},{"input":["MobilenetV2/expanded_conv/depthwise/BatchNorm/FusedBatchNorm/Mul","MobilenetV2/expanded_conv/depthwise/BatchNorm/FusedBatchNorm/Offset"],"attr":{"T":{"type":1}},"name":"MobilenetV2/expanded_conv/depthwise/BatchNorm/FusedBatchNorm","op":"Add"},{"input":["MobilenetV2/expanded_conv/depthwise/BatchNorm/FusedBatchNorm"],"attr":{"T":{"type":1}},"name":"MobilenetV2/expanded_conv/depthwise/Relu6","op":"Relu6"},{"input":["MobilenetV2/expanded_conv/depthwise/Relu6","MobilenetV2/expanded_conv/project/Conv2D/merged_input"],"attr":{"padding":{"s":[83,65,77,69]},"dilations":{"list":{"s":[],"i":["1","1","1","1"],"f":[],"b":[],"type":[],"shape":[],"tensor":[],"func":[]}},"T":{"type":1},"strides":{"list":{"s":[],"i":["1","1","1","1"],"f":[],"b":[],"type":[],"shape":[],"tensor":[],"func":[]}},"data_format":{"s":[78,72,87,67]},"use_cudnn_on_gpu":{"b":true}},"name":"MobilenetV2/expanded_conv/project/BatchNorm/FusedBatchNorm/Mul","op":"Conv2D"},{"input":["MobilenetV2/expanded_conv/project/BatchNorm/FusedBatchNorm/Mul","MobilenetV2/expanded_conv/project/BatchNorm/FusedBatchNorm/Offset"],"attr":{"T":{"type":1}},"name":"MobilenetV2/expanded_conv/project/BatchNorm/FusedBatchNorm","op":"Add"},{"input":["MobilenetV2/expanded_conv/project/BatchNorm/FusedBatchNorm","MobilenetV2/expanded_conv_1/expand/Conv2D/merged_input"],"attr":{"dilations":{"list":{"s":[],"i":["1","1","1","1"],"f":[],"b":[],"type":[],"shape":[],"tensor":[],"func":[]}},"T":{"type":1},"strides":{"list":{"s":[],"i":["1","1","1","1"],"f":[],"b":[],"type":[],"shape":[],"tensor":[],"func":[]}},"data_format":{"s":[78,72,87,67]},"use_cudnn_on_gpu":{"b":true},"padding":{"s":[83,65,77,69]}},"name":"MobilenetV2/expanded_conv_1/expand/BatchNorm/FusedBatchNorm/Mul","op":"Conv2D"},{"input":["MobilenetV2/expanded_conv_1/expand/BatchNorm/FusedBatchNorm/Mul","MobilenetV2/expanded_conv_1/expand/BatchNorm/FusedBatchNorm/Offset"],"attr":{"T":{"type":1}},"name":"MobilenetV2/expanded_conv_1/expand/BatchNorm/FusedBatchNorm","op":"Add"},{"input":["MobilenetV2/expanded_conv_1/expand/BatchNorm/FusedBatchNorm"],"attr":{"T":{"type":1}},"name":"MobilenetV2/expanded_conv_1/expand/Relu6","op":"Relu6"},{"input":["MobilenetV2/expanded_conv_1/expand/Relu6","MobilenetV2/expanded_conv_1/depthwise/depthwise_weights"],"attr":{"strides":{"list":{"s":[],"i":["1","2","2","1"],"f":[],"b":[],"type":[],"shape":[],"tensor":[],"func":[]}},"data_format":{"s":[78,72,87,67]},"dilations":{"list":{"s":[],"i":["1","1","1","1"],"f":[],"b":[],"type":[],"shape":[],"tensor":[],"func":[]}},"padding":{"s":[83,65,77,69]},"T":{"type":1}},"name":"MobilenetV2/expanded_conv_1/depthwise/depthwise","op":"DepthwiseConv2dNative"},{"input":["MobilenetV2/expanded_conv_1/depthwise/depthwise","MobilenetV2/expanded_conv_1/depthwise/BatchNorm/FusedBatchNorm/Scaled"],"attr":{"T":{"type":1}},"name":"MobilenetV2/expanded_conv_1/depthwise/BatchNorm/FusedBatchNorm/Mul","op":"Mul"},{"input":["MobilenetV2/expanded_conv_1/depthwise/BatchNorm/FusedBatchNorm/Mul","MobilenetV2/expanded_conv_1/depthwise/BatchNorm/FusedBatchNorm/Offset"],"attr":{"T":{"type":1}},"name":"MobilenetV2/expanded_conv_1/depthwise/BatchNorm/FusedBatchNorm","op":"Add"},{"input":["MobilenetV2/expanded_conv_1/depthwise/BatchNorm/FusedBatchNorm"],"attr":{"T":{"type":1}},"name":"MobilenetV2/expanded_conv_1/depthwise/Relu6","op":"Relu6"},{"input":["MobilenetV2/expanded_conv_1/depthwise/Relu6","MobilenetV2/expanded_conv_1/project/Conv2D/merged_input"],"attr":{"padding":{"s":[83,65,77,69]},"dilations":{"list":{"s":[],"i":["1","1","1","1"],"f":[],"b":[],"type":[],"shape":[],"tensor":[],"func":[]}},"T":{"type":1},"data_format":{"s":[78,72,87,67]},"strides":{"list":{"s":[],"i":["1","1","1","1"],"f":[],"b":[],"type":[],"shape":[],"tensor":[],"func":[]}},"use_cudnn_on_gpu":{"b":true}},"name":"MobilenetV2/expanded_conv_1/project/BatchNorm/FusedBatchNorm/Mul","op":"Conv2D"},{"input":["MobilenetV2/expanded_conv_1/project/BatchNorm/FusedBatchNorm/Mul","MobilenetV2/expanded_conv_1/project/BatchNorm/FusedBatchNorm/Offset"],"attr":{"T":{"type":1}},"name":"MobilenetV2/expanded_conv_1/project/BatchNorm/FusedBatchNorm","op":"Add"},{"input":["MobilenetV2/expanded_conv_1/project/BatchNorm/FusedBatchNorm","MobilenetV2/expanded_conv_2/expand/Conv2D/merged_input"],"attr":{"dilations":{"list":{"s":[],"i":["1","1","1","1"],"f":[],"b":[],"type":[],"shape":[],"tensor":[],"func":[]}},"T":{"type":1},"data_format":{"s":[78,72,87,67]},"strides":{"list":{"s":[],"i":["1","1","1","1"],"f":[],"b":[],"type":[],"shape":[],"tensor":[],"func":[]}},"use_cudnn_on_gpu":{"b":true},"padding":{"s":[83,65,77,69]}},"name":"MobilenetV2/expanded_conv_2/expand/BatchNorm/FusedBatchNorm/Mul","op":"Conv2D"},{"input":["MobilenetV2/expanded_conv_2/expand/BatchNorm/FusedBatchNorm/Mul","MobilenetV2/expanded_conv_2/expand/BatchNorm/FusedBatchNorm/Offset"],"attr":{"T":{"type":1}},"name":"MobilenetV2/expanded_conv_2/expand/BatchNorm/FusedBatchNorm","op":"Add"},{"input":["MobilenetV2/expanded_conv_2/expand/BatchNorm/FusedBatchNorm"],"attr":{"T":{"type":1}},"name":"MobilenetV2/expanded_conv_2/expand/Relu6","op":"Relu6"},{"input":["MobilenetV2/expanded_conv_2/expand/Relu6","MobilenetV2/expanded_conv_2/depthwise/depthwise_weights"],"attr":{"padding":{"s":[83,65,77,69]},"dilations":{"list":{"s":[],"i":["1","1","1","1"],"f":[],"b":[],"type":[],"shape":[],"tensor":[],"func":[]}},"T":{"type":1},"strides":{"list":{"s":[],"i":["1","1","1","1"],"f":[],"b":[],"type":[],"shape":[],"tensor":[],"func":[]}},"data_format":{"s":[78,72,87,67]}},"name":"MobilenetV2/expanded_conv_2/depthwise/depthwise","op":"DepthwiseConv2dNative"},{"input":["MobilenetV2/expanded_conv_2/depthwise/depthwise","MobilenetV2/expanded_conv_2/depthwise/BatchNorm/FusedBatchNorm/Scaled"],"attr":{"T":{"type":1}},"name":"MobilenetV2/expanded_conv_2/depthwise/BatchNorm/FusedBatchNorm/Mul","op":"Mul"},{"input":["MobilenetV2/expanded_conv_2/depthwise/BatchNorm/FusedBatchNorm/Mul","MobilenetV2/expanded_conv_2/depthwise/BatchNorm/FusedBatchNorm/Offset"],"attr":{"T":{"type":1}},"name":"MobilenetV2/expanded_conv_2/depthwise/BatchNorm/FusedBatchNorm","op":"Add"},{"input":["MobilenetV2/expanded_conv_2/depthwise/BatchNorm/FusedBatchNorm"],"attr":{"T":{"type":1}},"name":"MobilenetV2/expanded_conv_2/depthwise/Relu6","op":"Relu6"},{"input":["MobilenetV2/expanded_conv_2/depthwise/Relu6","MobilenetV2/expanded_conv_2/project/Conv2D/merged_input"],"attr":{"padding":{"s":[83,65,77,69]},"dilations":{"list":{"s":[],"i":["1","1","1","1"],"f":[],"b":[],"type":[],"shape":[],"tensor":[],"func":[]}},"T":{"type":1},"data_format":{"s":[78,72,87,67]},"strides":{"list":{"s":[],"i":["1","1","1","1"],"f":[],"b":[],"type":[],"shape":[],"tensor":[],"func":[]}},"use_cudnn_on_gpu":{"b":true}},"name":"MobilenetV2/expanded_conv_2/project/BatchNorm/FusedBatchNorm/Mul","op":"Conv2D"},{"input":["MobilenetV2/expanded_conv_2/depthwise/Relu6","decoder/feature_projection0/Conv2D/merged_input"],"attr":{"strides":{"list":{"s":[],"i":["1","1","1","1"],"f":[],"b":[],"type":[],"shape":[],"tensor":[],"func":[]}},"data_format":{"s":[78,72,87,67]},"use_cudnn_on_gpu":{"b":true},"padding":{"s":[83,65,77,69]},"dilations":{"list":{"s":[],"i":["1","1","1","1"],"f":[],"b":[],"type":[],"shape":[],"tensor":[],"func":[]}},"T":{"type":1}},"name":"decoder/feature_projection0/BatchNorm/FusedBatchNorm/Mul","op":"Conv2D"},{"input":["MobilenetV2/expanded_conv_2/project/BatchNorm/FusedBatchNorm/Mul","MobilenetV2/expanded_conv_1/project/BatchNorm/FusedBatchNorm"],"attr":{"T":{"type":1},"N":{"i":"2"},"_grappler:ArithmeticOptimizer:AddOpsRewriteStage":{"b":true}},"name":"MobilenetV2/expanded_conv_2/ArithmeticOptimizer/AddOpsRewrite_Leaf_1_add","op":"AddN"},{"input":["decoder/feature_projection0/BatchNorm/FusedBatchNorm/Mul","decoder/feature_projection0/BatchNorm/FusedBatchNorm/Offset"],"attr":{"T":{"type":1}},"name":"decoder/feature_projection0/BatchNorm/FusedBatchNorm","op":"Add"},{"input":["MobilenetV2/expanded_conv_2/project/BatchNorm/FusedBatchNorm/Offset","MobilenetV2/expanded_conv_2/ArithmeticOptimizer/AddOpsRewrite_Leaf_1_add"],"attr":{"T":{"type":1},"_grappler:ArithmeticOptimizer:AddOpsRewriteStage":{"b":true}},"name":"MobilenetV2/expanded_conv_2/ArithmeticOptimizer/AddOpsRewrite_add","op":"Add"},{"input":["decoder/feature_projection0/BatchNorm/FusedBatchNorm"],"attr":{"T":{"type":1}},"name":"decoder/feature_projection0/Relu","op":"Relu"},{"input":["MobilenetV2/expanded_conv_2/ArithmeticOptimizer/AddOpsRewrite_add","MobilenetV2/expanded_conv_3/expand/Conv2D/merged_input"],"attr":{"padding":{"s":[83,65,77,69]},"dilations":{"list":{"s":[],"i":["1","1","1","1"],"f":[],"b":[],"type":[],"shape":[],"tensor":[],"func":[]}},"T":{"type":1},"data_format":{"s":[78,72,87,67]},"strides":{"list":{"s":[],"i":["1","1","1","1"],"f":[],"b":[],"type":[],"shape":[],"tensor":[],"func":[]}},"use_cudnn_on_gpu":{"b":true}},"name":"MobilenetV2/expanded_conv_3/expand/BatchNorm/FusedBatchNorm/Mul","op":"Conv2D"},{"input":["decoder/feature_projection0/Relu","decoder/ResizeBilinear/size"],"attr":{"T":{"type":1},"align_corners":{"b":true}},"name":"decoder/ResizeBilinear_1","op":"ResizeBilinear"},{"input":["MobilenetV2/expanded_conv_3/expand/BatchNorm/FusedBatchNorm/Mul","MobilenetV2/expanded_conv_3/expand/BatchNorm/FusedBatchNorm/Offset"],"attr":{"T":{"type":1}},"name":"MobilenetV2/expanded_conv_3/expand/BatchNorm/FusedBatchNorm","op":"Add"},{"input":["MobilenetV2/expanded_conv_3/expand/BatchNorm/FusedBatchNorm"],"attr":{"T":{"type":1}},"name":"MobilenetV2/expanded_conv_3/expand/Relu6","op":"Relu6"},{"input":["MobilenetV2/expanded_conv_3/expand/Relu6","MobilenetV2/expanded_conv_3/depthwise/depthwise_weights"],"attr":{"dilations":{"list":{"s":[],"i":["1","1","1","1"],"f":[],"b":[],"type":[],"shape":[],"tensor":[],"func":[]}},"padding":{"s":[83,65,77,69]},"T":{"type":1},"data_format":{"s":[78,72,87,67]},"strides":{"list":{"s":[],"i":["1","2","2","1"],"f":[],"b":[],"type":[],"shape":[],"tensor":[],"func":[]}}},"name":"MobilenetV2/expanded_conv_3/depthwise/depthwise","op":"DepthwiseConv2dNative"},{"input":["MobilenetV2/expanded_conv_3/depthwise/depthwise","MobilenetV2/expanded_conv_3/depthwise/BatchNorm/FusedBatchNorm/Scaled"],"attr":{"T":{"type":1}},"name":"MobilenetV2/expanded_conv_3/depthwise/BatchNorm/FusedBatchNorm/Mul","op":"Mul"},{"input":["MobilenetV2/expanded_conv_3/depthwise/BatchNorm/FusedBatchNorm/Mul","MobilenetV2/expanded_conv_3/depthwise/BatchNorm/FusedBatchNorm/Offset"],"attr":{"T":{"type":1}},"name":"MobilenetV2/expanded_conv_3/depthwise/BatchNorm/FusedBatchNorm","op":"Add"},{"input":["MobilenetV2/expanded_conv_3/depthwise/BatchNorm/FusedBatchNorm"],"attr":{"T":{"type":1}},"name":"MobilenetV2/expanded_conv_3/depthwise/Relu6","op":"Relu6"},{"input":["MobilenetV2/expanded_conv_3/depthwise/Relu6","MobilenetV2/expanded_conv_3/project/Conv2D/merged_input"],"attr":{"padding":{"s":[83,65,77,69]},"dilations":{"list":{"s":[],"i":["1","1","1","1"],"f":[],"b":[],"type":[],"shape":[],"tensor":[],"func":[]}},"T":{"type":1},"strides":{"list":{"s":[],"i":["1","1","1","1"],"f":[],"b":[],"type":[],"shape":[],"tensor":[],"func":[]}},"data_format":{"s":[78,72,87,67]},"use_cudnn_on_gpu":{"b":true}},"name":"MobilenetV2/expanded_conv_3/project/BatchNorm/FusedBatchNorm/Mul","op":"Conv2D"},{"input":["MobilenetV2/expanded_conv_3/project/BatchNorm/FusedBatchNorm/Mul","MobilenetV2/expanded_conv_3/project/BatchNorm/FusedBatchNorm/Offset"],"attr":{"T":{"type":1}},"name":"MobilenetV2/expanded_conv_3/project/BatchNorm/FusedBatchNorm","op":"Add"},{"input":["MobilenetV2/expanded_conv_3/project/BatchNorm/FusedBatchNorm","MobilenetV2/expanded_conv_4/expand/Conv2D/merged_input"],"attr":{"padding":{"s":[83,65,77,69]},"dilations":{"list":{"s":[],"i":["1","1","1","1"],"f":[],"b":[],"type":[],"shape":[],"tensor":[],"func":[]}},"T":{"type":1},"strides":{"list":{"s":[],"i":["1","1","1","1"],"f":[],"b":[],"type":[],"shape":[],"tensor":[],"func":[]}},"data_format":{"s":[78,72,87,67]},"use_cudnn_on_gpu":{"b":true}},"name":"MobilenetV2/expanded_conv_4/expand/BatchNorm/FusedBatchNorm/Mul","op":"Conv2D"},{"input":["MobilenetV2/expanded_conv_4/expand/BatchNorm/FusedBatchNorm/Mul","MobilenetV2/expanded_conv_4/expand/BatchNorm/FusedBatchNorm/Offset"],"attr":{"T":{"type":1}},"name":"MobilenetV2/expanded_conv_4/expand/BatchNorm/FusedBatchNorm","op":"Add"},{"input":["MobilenetV2/expanded_conv_4/expand/BatchNorm/FusedBatchNorm"],"attr":{"T":{"type":1}},"name":"MobilenetV2/expanded_conv_4/expand/Relu6","op":"Relu6"},{"input":["MobilenetV2/expanded_conv_4/expand/Relu6","MobilenetV2/expanded_conv_4/depthwise/depthwise_weights"],"attr":{"T":{"type":1},"data_format":{"s":[78,72,87,67]},"strides":{"list":{"s":[],"i":["1","1","1","1"],"f":[],"b":[],"type":[],"shape":[],"tensor":[],"func":[]}},"dilations":{"list":{"s":[],"i":["1","1","1","1"],"f":[],"b":[],"type":[],"shape":[],"tensor":[],"func":[]}},"padding":{"s":[83,65,77,69]}},"name":"MobilenetV2/expanded_conv_4/depthwise/depthwise","op":"DepthwiseConv2dNative"},{"input":["MobilenetV2/expanded_conv_4/depthwise/depthwise","MobilenetV2/expanded_conv_4/depthwise/BatchNorm/FusedBatchNorm/Scaled"],"attr":{"T":{"type":1}},"name":"MobilenetV2/expanded_conv_4/depthwise/BatchNorm/FusedBatchNorm/Mul","op":"Mul"},{"input":["MobilenetV2/expanded_conv_4/depthwise/BatchNorm/FusedBatchNorm/Mul","MobilenetV2/expanded_conv_4/depthwise/BatchNorm/FusedBatchNorm/Offset"],"attr":{"T":{"type":1}},"name":"MobilenetV2/expanded_conv_4/depthwise/BatchNorm/FusedBatchNorm","op":"Add"},{"input":["MobilenetV2/expanded_conv_4/depthwise/BatchNorm/FusedBatchNorm"],"attr":{"T":{"type":1}},"name":"MobilenetV2/expanded_conv_4/depthwise/Relu6","op":"Relu6"},{"input":["MobilenetV2/expanded_conv_4/depthwise/Relu6","MobilenetV2/expanded_conv_4/project/Conv2D/merged_input"],"attr":{"padding":{"s":[83,65,77,69]},"dilations":{"list":{"s":[],"i":["1","1","1","1"],"f":[],"b":[],"type":[],"shape":[],"tensor":[],"func":[]}},"T":{"type":1},"strides":{"list":{"s":[],"i":["1","1","1","1"],"f":[],"b":[],"type":[],"shape":[],"tensor":[],"func":[]}},"data_format":{"s":[78,72,87,67]},"use_cudnn_on_gpu":{"b":true}},"name":"MobilenetV2/expanded_conv_4/project/BatchNorm/FusedBatchNorm/Mul","op":"Conv2D"},{"input":["MobilenetV2/expanded_conv_4/project/BatchNorm/FusedBatchNorm/Mul","MobilenetV2/expanded_conv_3/project/BatchNorm/FusedBatchNorm"],"attr":{"T":{"type":1},"N":{"i":"2"},"_grappler:ArithmeticOptimizer:AddOpsRewriteStage":{"b":true}},"name":"MobilenetV2/expanded_conv_4/ArithmeticOptimizer/AddOpsRewrite_Leaf_1_add","op":"AddN"},{"input":["MobilenetV2/expanded_conv_4/project/BatchNorm/FusedBatchNorm/Offset","MobilenetV2/expanded_conv_4/ArithmeticOptimizer/AddOpsRewrite_Leaf_1_add"],"attr":{"T":{"type":1},"_grappler:ArithmeticOptimizer:AddOpsRewriteStage":{"b":true}},"name":"MobilenetV2/expanded_conv_4/ArithmeticOptimizer/AddOpsRewrite_add","op":"Add"},{"input":["MobilenetV2/expanded_conv_4/ArithmeticOptimizer/AddOpsRewrite_add","MobilenetV2/expanded_conv_5/expand/Conv2D/merged_input"],"attr":{"dilations":{"list":{"s":[],"i":["1","1","1","1"],"f":[],"b":[],"type":[],"shape":[],"tensor":[],"func":[]}},"T":{"type":1},"strides":{"list":{"s":[],"i":["1","1","1","1"],"f":[],"b":[],"type":[],"shape":[],"tensor":[],"func":[]}},"data_format":{"s":[78,72,87,67]},"use_cudnn_on_gpu":{"b":true},"padding":{"s":[83,65,77,69]}},"name":"MobilenetV2/expanded_conv_5/expand/BatchNorm/FusedBatchNorm/Mul","op":"Conv2D"},{"input":["MobilenetV2/expanded_conv_5/expand/BatchNorm/FusedBatchNorm/Mul","MobilenetV2/expanded_conv_5/expand/BatchNorm/FusedBatchNorm/Offset"],"attr":{"T":{"type":1}},"name":"MobilenetV2/expanded_conv_5/expand/BatchNorm/FusedBatchNorm","op":"Add"},{"input":["MobilenetV2/expanded_conv_5/expand/BatchNorm/FusedBatchNorm"],"attr":{"T":{"type":1}},"name":"MobilenetV2/expanded_conv_5/expand/Relu6","op":"Relu6"},{"input":["MobilenetV2/expanded_conv_5/expand/Relu6","MobilenetV2/expanded_conv_5/depthwise/depthwise_weights"],"attr":{"data_format":{"s":[78,72,87,67]},"strides":{"list":{"s":[],"i":["1","1","1","1"],"f":[],"b":[],"type":[],"shape":[],"tensor":[],"func":[]}},"padding":{"s":[83,65,77,69]},"dilations":{"list":{"s":[],"i":["1","1","1","1"],"f":[],"b":[],"type":[],"shape":[],"tensor":[],"func":[]}},"T":{"type":1}},"name":"MobilenetV2/expanded_conv_5/depthwise/depthwise","op":"DepthwiseConv2dNative"},{"input":["MobilenetV2/expanded_conv_5/depthwise/depthwise","MobilenetV2/expanded_conv_5/depthwise/BatchNorm/FusedBatchNorm/Scaled"],"attr":{"T":{"type":1}},"name":"MobilenetV2/expanded_conv_5/depthwise/BatchNorm/FusedBatchNorm/Mul","op":"Mul"},{"input":["MobilenetV2/expanded_conv_5/depthwise/BatchNorm/FusedBatchNorm/Mul","MobilenetV2/expanded_conv_5/depthwise/BatchNorm/FusedBatchNorm/Offset"],"attr":{"T":{"type":1}},"name":"MobilenetV2/expanded_conv_5/depthwise/BatchNorm/FusedBatchNorm","op":"Add"},{"input":["MobilenetV2/expanded_conv_5/depthwise/BatchNorm/FusedBatchNorm"],"attr":{"T":{"type":1}},"name":"MobilenetV2/expanded_conv_5/depthwise/Relu6","op":"Relu6"},{"input":["MobilenetV2/expanded_conv_5/depthwise/Relu6","MobilenetV2/expanded_conv_5/project/Conv2D/merged_input"],"attr":{"dilations":{"list":{"s":[],"i":["1","1","1","1"],"f":[],"b":[],"type":[],"shape":[],"tensor":[],"func":[]}},"T":{"type":1},"strides":{"list":{"s":[],"i":["1","1","1","1"],"f":[],"b":[],"type":[],"shape":[],"tensor":[],"func":[]}},"data_format":{"s":[78,72,87,67]},"use_cudnn_on_gpu":{"b":true},"padding":{"s":[83,65,77,69]}},"name":"MobilenetV2/expanded_conv_5/project/BatchNorm/FusedBatchNorm/Mul","op":"Conv2D"},{"input":["MobilenetV2/expanded_conv_5/project/BatchNorm/FusedBatchNorm/Mul","MobilenetV2/expanded_conv_4/ArithmeticOptimizer/AddOpsRewrite_add"],"attr":{"T":{"type":1},"N":{"i":"2"},"_grappler:ArithmeticOptimizer:AddOpsRewriteStage":{"b":true}},"name":"MobilenetV2/expanded_conv_5/ArithmeticOptimizer/AddOpsRewrite_Leaf_1_add","op":"AddN"},{"input":["MobilenetV2/expanded_conv_5/project/BatchNorm/FusedBatchNorm/Offset","MobilenetV2/expanded_conv_5/ArithmeticOptimizer/AddOpsRewrite_Leaf_1_add"],"attr":{"T":{"type":1},"_grappler:ArithmeticOptimizer:AddOpsRewriteStage":{"b":true}},"name":"MobilenetV2/expanded_conv_5/ArithmeticOptimizer/AddOpsRewrite_add","op":"Add"},{"input":["MobilenetV2/expanded_conv_5/ArithmeticOptimizer/AddOpsRewrite_add","MobilenetV2/expanded_conv_6/expand/Conv2D/merged_input"],"attr":{"padding":{"s":[83,65,77,69]},"dilations":{"list":{"s":[],"i":["1","1","1","1"],"f":[],"b":[],"type":[],"shape":[],"tensor":[],"func":[]}},"T":{"type":1},"strides":{"list":{"s":[],"i":["1","1","1","1"],"f":[],"b":[],"type":[],"shape":[],"tensor":[],"func":[]}},"data_format":{"s":[78,72,87,67]},"use_cudnn_on_gpu":{"b":true}},"name":"MobilenetV2/expanded_conv_6/expand/BatchNorm/FusedBatchNorm/Mul","op":"Conv2D"},{"input":["MobilenetV2/expanded_conv_6/expand/BatchNorm/FusedBatchNorm/Mul","MobilenetV2/expanded_conv_6/expand/BatchNorm/FusedBatchNorm/Offset"],"attr":{"T":{"type":1}},"name":"MobilenetV2/expanded_conv_6/expand/BatchNorm/FusedBatchNorm","op":"Add"},{"input":["MobilenetV2/expanded_conv_6/expand/BatchNorm/FusedBatchNorm"],"attr":{"T":{"type":1}},"name":"MobilenetV2/expanded_conv_6/expand/Relu6","op":"Relu6"},{"input":["MobilenetV2/expanded_conv_6/expand/Relu6","MobilenetV2/expanded_conv_6/depthwise/depthwise_weights"],"attr":{"padding":{"s":[83,65,77,69]},"dilations":{"list":{"s":[],"i":["1","1","1","1"],"f":[],"b":[],"type":[],"shape":[],"tensor":[],"func":[]}},"T":{"type":1},"data_format":{"s":[78,72,87,67]},"strides":{"list":{"s":[],"i":["1","2","2","1"],"f":[],"b":[],"type":[],"shape":[],"tensor":[],"func":[]}}},"name":"MobilenetV2/expanded_conv_6/depthwise/depthwise","op":"DepthwiseConv2dNative"},{"input":["MobilenetV2/expanded_conv_6/depthwise/depthwise","MobilenetV2/expanded_conv_6/depthwise/BatchNorm/FusedBatchNorm/Scaled"],"attr":{"T":{"type":1}},"name":"MobilenetV2/expanded_conv_6/depthwise/BatchNorm/FusedBatchNorm/Mul","op":"Mul"},{"input":["MobilenetV2/expanded_conv_6/depthwise/BatchNorm/FusedBatchNorm/Mul","MobilenetV2/expanded_conv_6/depthwise/BatchNorm/FusedBatchNorm/Offset"],"attr":{"T":{"type":1}},"name":"MobilenetV2/expanded_conv_6/depthwise/BatchNorm/FusedBatchNorm","op":"Add"},{"input":["MobilenetV2/expanded_conv_6/depthwise/BatchNorm/FusedBatchNorm"],"attr":{"T":{"type":1}},"name":"MobilenetV2/expanded_conv_6/depthwise/Relu6","op":"Relu6"},{"input":["MobilenetV2/expanded_conv_6/depthwise/Relu6","MobilenetV2/expanded_conv_6/project/Conv2D/merged_input"],"attr":{"use_cudnn_on_gpu":{"b":true},"padding":{"s":[83,65,77,69]},"dilations":{"list":{"s":[],"i":["1","1","1","1"],"f":[],"b":[],"type":[],"shape":[],"tensor":[],"func":[]}},"T":{"type":1},"data_format":{"s":[78,72,87,67]},"strides":{"list":{"s":[],"i":["1","1","1","1"],"f":[],"b":[],"type":[],"shape":[],"tensor":[],"func":[]}}},"name":"MobilenetV2/expanded_conv_6/project/BatchNorm/FusedBatchNorm/Mul","op":"Conv2D"},{"input":["MobilenetV2/expanded_conv_6/project/BatchNorm/FusedBatchNorm/Mul","MobilenetV2/expanded_conv_6/project/BatchNorm/FusedBatchNorm/Offset"],"attr":{"T":{"type":1}},"name":"MobilenetV2/expanded_conv_6/project/BatchNorm/FusedBatchNorm","op":"Add"},{"input":["MobilenetV2/expanded_conv_6/project/BatchNorm/FusedBatchNorm","MobilenetV2/expanded_conv_7/expand/Conv2D/merged_input"],"attr":{"padding":{"s":[83,65,77,69]},"dilations":{"list":{"s":[],"i":["1","1","1","1"],"f":[],"b":[],"type":[],"shape":[],"tensor":[],"func":[]}},"T":{"type":1},"data_format":{"s":[78,72,87,67]},"strides":{"list":{"s":[],"i":["1","1","1","1"],"f":[],"b":[],"type":[],"shape":[],"tensor":[],"func":[]}},"use_cudnn_on_gpu":{"b":true}},"name":"MobilenetV2/expanded_conv_7/expand/BatchNorm/FusedBatchNorm/Mul","op":"Conv2D"},{"input":["MobilenetV2/expanded_conv_7/expand/BatchNorm/FusedBatchNorm/Mul","MobilenetV2/expanded_conv_7/expand/BatchNorm/FusedBatchNorm/Offset"],"attr":{"T":{"type":1}},"name":"MobilenetV2/expanded_conv_7/expand/BatchNorm/FusedBatchNorm","op":"Add"},{"input":["MobilenetV2/expanded_conv_7/expand/BatchNorm/FusedBatchNorm"],"attr":{"T":{"type":1}},"name":"MobilenetV2/expanded_conv_7/expand/Relu6","op":"Relu6"},{"input":["MobilenetV2/expanded_conv_7/expand/Relu6","MobilenetV2/expanded_conv_7/depthwise/depthwise_weights"],"attr":{"data_format":{"s":[78,72,87,67]},"strides":{"list":{"s":[],"i":["1","1","1","1"],"f":[],"b":[],"type":[],"shape":[],"tensor":[],"func":[]}},"dilations":{"list":{"s":[],"i":["1","1","1","1"],"f":[],"b":[],"type":[],"shape":[],"tensor":[],"func":[]}},"padding":{"s":[83,65,77,69]},"T":{"type":1}},"name":"MobilenetV2/expanded_conv_7/depthwise/depthwise","op":"DepthwiseConv2dNative"},{"input":["MobilenetV2/expanded_conv_7/depthwise/depthwise","MobilenetV2/expanded_conv_7/depthwise/BatchNorm/FusedBatchNorm/Scaled"],"attr":{"T":{"type":1}},"name":"MobilenetV2/expanded_conv_7/depthwise/BatchNorm/FusedBatchNorm/Mul","op":"Mul"},{"input":["MobilenetV2/expanded_conv_7/depthwise/BatchNorm/FusedBatchNorm/Mul","MobilenetV2/expanded_conv_7/depthwise/BatchNorm/FusedBatchNorm/Offset"],"attr":{"T":{"type":1}},"name":"MobilenetV2/expanded_conv_7/depthwise/BatchNorm/FusedBatchNorm","op":"Add"},{"input":["MobilenetV2/expanded_conv_7/depthwise/BatchNorm/FusedBatchNorm"],"attr":{"T":{"type":1}},"name":"MobilenetV2/expanded_conv_7/depthwise/Relu6","op":"Relu6"},{"input":["MobilenetV2/expanded_conv_7/depthwise/Relu6","MobilenetV2/expanded_conv_7/project/Conv2D/merged_input"],"attr":{"dilations":{"list":{"s":[],"i":["1","1","1","1"],"f":[],"b":[],"type":[],"shape":[],"tensor":[],"func":[]}},"T":{"type":1},"strides":{"list":{"s":[],"i":["1","1","1","1"],"f":[],"b":[],"type":[],"shape":[],"tensor":[],"func":[]}},"data_format":{"s":[78,72,87,67]},"use_cudnn_on_gpu":{"b":true},"padding":{"s":[83,65,77,69]}},"name":"MobilenetV2/expanded_conv_7/project/BatchNorm/FusedBatchNorm/Mul","op":"Conv2D"},{"input":["MobilenetV2/expanded_conv_7/project/BatchNorm/FusedBatchNorm/Mul","MobilenetV2/expanded_conv_6/project/BatchNorm/FusedBatchNorm"],"attr":{"T":{"type":1},"N":{"i":"2"},"_grappler:ArithmeticOptimizer:AddOpsRewriteStage":{"b":true}},"name":"MobilenetV2/expanded_conv_7/ArithmeticOptimizer/AddOpsRewrite_Leaf_1_add","op":"AddN"},{"input":["MobilenetV2/expanded_conv_7/project/BatchNorm/FusedBatchNorm/Offset","MobilenetV2/expanded_conv_7/ArithmeticOptimizer/AddOpsRewrite_Leaf_1_add"],"attr":{"T":{"type":1},"_grappler:ArithmeticOptimizer:AddOpsRewriteStage":{"b":true}},"name":"MobilenetV2/expanded_conv_7/ArithmeticOptimizer/AddOpsRewrite_add","op":"Add"},{"input":["MobilenetV2/expanded_conv_7/ArithmeticOptimizer/AddOpsRewrite_add","MobilenetV2/expanded_conv_8/expand/Conv2D/merged_input"],"attr":{"padding":{"s":[83,65,77,69]},"dilations":{"list":{"s":[],"i":["1","1","1","1"],"f":[],"b":[],"type":[],"shape":[],"tensor":[],"func":[]}},"T":{"type":1},"data_format":{"s":[78,72,87,67]},"strides":{"list":{"s":[],"i":["1","1","1","1"],"f":[],"b":[],"type":[],"shape":[],"tensor":[],"func":[]}},"use_cudnn_on_gpu":{"b":true}},"name":"MobilenetV2/expanded_conv_8/expand/BatchNorm/FusedBatchNorm/Mul","op":"Conv2D"},{"input":["MobilenetV2/expanded_conv_8/expand/BatchNorm/FusedBatchNorm/Mul","MobilenetV2/expanded_conv_8/expand/BatchNorm/FusedBatchNorm/Offset"],"attr":{"T":{"type":1}},"name":"MobilenetV2/expanded_conv_8/expand/BatchNorm/FusedBatchNorm","op":"Add"},{"input":["MobilenetV2/expanded_conv_8/expand/BatchNorm/FusedBatchNorm"],"attr":{"T":{"type":1}},"name":"MobilenetV2/expanded_conv_8/expand/Relu6","op":"Relu6"},{"input":["MobilenetV2/expanded_conv_8/expand/Relu6","MobilenetV2/expanded_conv_8/depthwise/depthwise_weights"],"attr":{"dilations":{"list":{"s":[],"i":["1","1","1","1"],"f":[],"b":[],"type":[],"shape":[],"tensor":[],"func":[]}},"padding":{"s":[83,65,77,69]},"T":{"type":1},"strides":{"list":{"s":[],"i":["1","1","1","1"],"f":[],"b":[],"type":[],"shape":[],"tensor":[],"func":[]}},"data_format":{"s":[78,72,87,67]}},"name":"MobilenetV2/expanded_conv_8/depthwise/depthwise","op":"DepthwiseConv2dNative"},{"input":["MobilenetV2/expanded_conv_8/depthwise/depthwise","MobilenetV2/expanded_conv_8/depthwise/BatchNorm/FusedBatchNorm/Scaled"],"attr":{"T":{"type":1}},"name":"MobilenetV2/expanded_conv_8/depthwise/BatchNorm/FusedBatchNorm/Mul","op":"Mul"},{"input":["MobilenetV2/expanded_conv_8/depthwise/BatchNorm/FusedBatchNorm/Mul","MobilenetV2/expanded_conv_8/depthwise/BatchNorm/FusedBatchNorm/Offset"],"attr":{"T":{"type":1}},"name":"MobilenetV2/expanded_conv_8/depthwise/BatchNorm/FusedBatchNorm","op":"Add"},{"input":["MobilenetV2/expanded_conv_8/depthwise/BatchNorm/FusedBatchNorm"],"attr":{"T":{"type":1}},"name":"MobilenetV2/expanded_conv_8/depthwise/Relu6","op":"Relu6"},{"input":["MobilenetV2/expanded_conv_8/depthwise/Relu6","MobilenetV2/expanded_conv_8/project/Conv2D/merged_input"],"attr":{"dilations":{"list":{"s":[],"i":["1","1","1","1"],"f":[],"b":[],"type":[],"shape":[],"tensor":[],"func":[]}},"T":{"type":1},"strides":{"list":{"s":[],"i":["1","1","1","1"],"f":[],"b":[],"type":[],"shape":[],"tensor":[],"func":[]}},"data_format":{"s":[78,72,87,67]},"use_cudnn_on_gpu":{"b":true},"padding":{"s":[83,65,77,69]}},"name":"MobilenetV2/expanded_conv_8/project/BatchNorm/FusedBatchNorm/Mul","op":"Conv2D"},{"input":["MobilenetV2/expanded_conv_8/project/BatchNorm/FusedBatchNorm/Mul","MobilenetV2/expanded_conv_7/ArithmeticOptimizer/AddOpsRewrite_add"],"attr":{"T":{"type":1},"N":{"i":"2"},"_grappler:ArithmeticOptimizer:AddOpsRewriteStage":{"b":true}},"name":"MobilenetV2/expanded_conv_8/ArithmeticOptimizer/AddOpsRewrite_Leaf_1_add","op":"AddN"},{"input":["MobilenetV2/expanded_conv_8/project/BatchNorm/FusedBatchNorm/Offset","MobilenetV2/expanded_conv_8/ArithmeticOptimizer/AddOpsRewrite_Leaf_1_add"],"attr":{"_grappler:ArithmeticOptimizer:AddOpsRewriteStage":{"b":true},"T":{"type":1}},"name":"MobilenetV2/expanded_conv_8/ArithmeticOptimizer/AddOpsRewrite_add","op":"Add"},{"input":["MobilenetV2/expanded_conv_8/ArithmeticOptimizer/AddOpsRewrite_add","MobilenetV2/expanded_conv_9/expand/Conv2D/merged_input"],"attr":{"padding":{"s":[83,65,77,69]},"dilations":{"list":{"s":[],"i":["1","1","1","1"],"f":[],"b":[],"type":[],"shape":[],"tensor":[],"func":[]}},"T":{"type":1},"strides":{"list":{"s":[],"i":["1","1","1","1"],"f":[],"b":[],"type":[],"shape":[],"tensor":[],"func":[]}},"data_format":{"s":[78,72,87,67]},"use_cudnn_on_gpu":{"b":true}},"name":"MobilenetV2/expanded_conv_9/expand/BatchNorm/FusedBatchNorm/Mul","op":"Conv2D"},{"input":["MobilenetV2/expanded_conv_9/expand/BatchNorm/FusedBatchNorm/Mul","MobilenetV2/expanded_conv_9/expand/BatchNorm/FusedBatchNorm/Offset"],"attr":{"T":{"type":1}},"name":"MobilenetV2/expanded_conv_9/expand/BatchNorm/FusedBatchNorm","op":"Add"},{"input":["MobilenetV2/expanded_conv_9/expand/BatchNorm/FusedBatchNorm"],"attr":{"T":{"type":1}},"name":"MobilenetV2/expanded_conv_9/expand/Relu6","op":"Relu6"},{"input":["MobilenetV2/expanded_conv_9/expand/Relu6","MobilenetV2/expanded_conv_9/depthwise/depthwise_weights"],"attr":{"dilations":{"list":{"s":[],"i":["1","1","1","1"],"f":[],"b":[],"type":[],"shape":[],"tensor":[],"func":[]}},"padding":{"s":[83,65,77,69]},"T":{"type":1},"strides":{"list":{"s":[],"i":["1","1","1","1"],"f":[],"b":[],"type":[],"shape":[],"tensor":[],"func":[]}},"data_format":{"s":[78,72,87,67]}},"name":"MobilenetV2/expanded_conv_9/depthwise/depthwise","op":"DepthwiseConv2dNative"},{"input":["MobilenetV2/expanded_conv_9/depthwise/depthwise","MobilenetV2/expanded_conv_9/depthwise/BatchNorm/FusedBatchNorm/Scaled"],"attr":{"T":{"type":1}},"name":"MobilenetV2/expanded_conv_9/depthwise/BatchNorm/FusedBatchNorm/Mul","op":"Mul"},{"input":["MobilenetV2/expanded_conv_9/depthwise/BatchNorm/FusedBatchNorm/Mul","MobilenetV2/expanded_conv_9/depthwise/BatchNorm/FusedBatchNorm/Offset"],"attr":{"T":{"type":1}},"name":"MobilenetV2/expanded_conv_9/depthwise/BatchNorm/FusedBatchNorm","op":"Add"},{"input":["MobilenetV2/expanded_conv_9/depthwise/BatchNorm/FusedBatchNorm"],"attr":{"T":{"type":1}},"name":"MobilenetV2/expanded_conv_9/depthwise/Relu6","op":"Relu6"},{"input":["MobilenetV2/expanded_conv_9/depthwise/Relu6","MobilenetV2/expanded_conv_9/project/Conv2D/merged_input"],"attr":{"padding":{"s":[83,65,77,69]},"dilations":{"list":{"s":[],"i":["1","1","1","1"],"f":[],"b":[],"type":[],"shape":[],"tensor":[],"func":[]}},"T":{"type":1},"data_format":{"s":[78,72,87,67]},"strides":{"list":{"s":[],"i":["1","1","1","1"],"f":[],"b":[],"type":[],"shape":[],"tensor":[],"func":[]}},"use_cudnn_on_gpu":{"b":true}},"name":"MobilenetV2/expanded_conv_9/project/BatchNorm/FusedBatchNorm/Mul","op":"Conv2D"},{"input":["MobilenetV2/expanded_conv_9/project/BatchNorm/FusedBatchNorm/Mul","MobilenetV2/expanded_conv_8/ArithmeticOptimizer/AddOpsRewrite_add"],"attr":{"T":{"type":1},"N":{"i":"2"},"_grappler:ArithmeticOptimizer:AddOpsRewriteStage":{"b":true}},"name":"MobilenetV2/expanded_conv_9/ArithmeticOptimizer/AddOpsRewrite_Leaf_1_add","op":"AddN"},{"input":["MobilenetV2/expanded_conv_9/project/BatchNorm/FusedBatchNorm/Offset","MobilenetV2/expanded_conv_9/ArithmeticOptimizer/AddOpsRewrite_Leaf_1_add"],"attr":{"T":{"type":1},"_grappler:ArithmeticOptimizer:AddOpsRewriteStage":{"b":true}},"name":"MobilenetV2/expanded_conv_9/ArithmeticOptimizer/AddOpsRewrite_add","op":"Add"},{"input":["MobilenetV2/expanded_conv_9/ArithmeticOptimizer/AddOpsRewrite_add","MobilenetV2/expanded_conv_10/expand/Conv2D/merged_input"],"attr":{"padding":{"s":[83,65,77,69]},"dilations":{"list":{"s":[],"i":["1","1","1","1"],"f":[],"b":[],"type":[],"shape":[],"tensor":[],"func":[]}},"T":{"type":1},"strides":{"list":{"s":[],"i":["1","1","1","1"],"f":[],"b":[],"type":[],"shape":[],"tensor":[],"func":[]}},"data_format":{"s":[78,72,87,67]},"use_cudnn_on_gpu":{"b":true}},"name":"MobilenetV2/expanded_conv_10/expand/BatchNorm/FusedBatchNorm/Mul","op":"Conv2D"},{"input":["MobilenetV2/expanded_conv_10/expand/BatchNorm/FusedBatchNorm/Mul","MobilenetV2/expanded_conv_10/expand/BatchNorm/FusedBatchNorm/Offset"],"attr":{"T":{"type":1}},"name":"MobilenetV2/expanded_conv_10/expand/BatchNorm/FusedBatchNorm","op":"Add"},{"input":["MobilenetV2/expanded_conv_10/expand/BatchNorm/FusedBatchNorm"],"attr":{"T":{"type":1}},"name":"MobilenetV2/expanded_conv_10/expand/Relu6","op":"Relu6"},{"input":["MobilenetV2/expanded_conv_10/expand/Relu6","MobilenetV2/expanded_conv_10/depthwise/depthwise_weights"],"attr":{"strides":{"list":{"s":[],"i":["1","1","1","1"],"f":[],"b":[],"type":[],"shape":[],"tensor":[],"func":[]}},"data_format":{"s":[78,72,87,67]},"padding":{"s":[83,65,77,69]},"dilations":{"list":{"s":[],"i":["1","1","1","1"],"f":[],"b":[],"type":[],"shape":[],"tensor":[],"func":[]}},"T":{"type":1}},"name":"MobilenetV2/expanded_conv_10/depthwise/depthwise","op":"DepthwiseConv2dNative"},{"input":["MobilenetV2/expanded_conv_10/depthwise/depthwise","MobilenetV2/expanded_conv_10/depthwise/BatchNorm/FusedBatchNorm/Scaled"],"attr":{"T":{"type":1}},"name":"MobilenetV2/expanded_conv_10/depthwise/BatchNorm/FusedBatchNorm/Mul","op":"Mul"},{"input":["MobilenetV2/expanded_conv_10/depthwise/BatchNorm/FusedBatchNorm/Mul","MobilenetV2/expanded_conv_10/depthwise/BatchNorm/FusedBatchNorm/Offset"],"attr":{"T":{"type":1}},"name":"MobilenetV2/expanded_conv_10/depthwise/BatchNorm/FusedBatchNorm","op":"Add"},{"input":["MobilenetV2/expanded_conv_10/depthwise/BatchNorm/FusedBatchNorm"],"attr":{"T":{"type":1}},"name":"MobilenetV2/expanded_conv_10/depthwise/Relu6","op":"Relu6"},{"input":["MobilenetV2/expanded_conv_10/depthwise/Relu6","MobilenetV2/expanded_conv_10/project/Conv2D/merged_input"],"attr":{"dilations":{"list":{"s":[],"i":["1","1","1","1"],"f":[],"b":[],"type":[],"shape":[],"tensor":[],"func":[]}},"T":{"type":1},"strides":{"list":{"s":[],"i":["1","1","1","1"],"f":[],"b":[],"type":[],"shape":[],"tensor":[],"func":[]}},"data_format":{"s":[78,72,87,67]},"use_cudnn_on_gpu":{"b":true},"padding":{"s":[83,65,77,69]}},"name":"MobilenetV2/expanded_conv_10/project/BatchNorm/FusedBatchNorm/Mul","op":"Conv2D"},{"input":["MobilenetV2/expanded_conv_10/project/BatchNorm/FusedBatchNorm/Mul","MobilenetV2/expanded_conv_10/project/BatchNorm/FusedBatchNorm/Offset"],"attr":{"T":{"type":1}},"name":"MobilenetV2/expanded_conv_10/project/BatchNorm/FusedBatchNorm","op":"Add"},{"input":["MobilenetV2/expanded_conv_10/project/BatchNorm/FusedBatchNorm","MobilenetV2/expanded_conv_11/expand/Conv2D/merged_input"],"attr":{"dilations":{"list":{"s":[],"i":["1","1","1","1"],"f":[],"b":[],"type":[],"shape":[],"tensor":[],"func":[]}},"T":{"type":1},"strides":{"list":{"s":[],"i":["1","1","1","1"],"f":[],"b":[],"type":[],"shape":[],"tensor":[],"func":[]}},"data_format":{"s":[78,72,87,67]},"use_cudnn_on_gpu":{"b":true},"padding":{"s":[83,65,77,69]}},"name":"MobilenetV2/expanded_conv_11/expand/BatchNorm/FusedBatchNorm/Mul","op":"Conv2D"},{"input":["MobilenetV2/expanded_conv_11/expand/BatchNorm/FusedBatchNorm/Mul","MobilenetV2/expanded_conv_11/expand/BatchNorm/FusedBatchNorm/Offset"],"attr":{"T":{"type":1}},"name":"MobilenetV2/expanded_conv_11/expand/BatchNorm/FusedBatchNorm","op":"Add"},{"input":["MobilenetV2/expanded_conv_11/expand/BatchNorm/FusedBatchNorm"],"attr":{"T":{"type":1}},"name":"MobilenetV2/expanded_conv_11/expand/Relu6","op":"Relu6"},{"input":["MobilenetV2/expanded_conv_11/expand/Relu6","MobilenetV2/expanded_conv_11/depthwise/depthwise_weights"],"attr":{"data_format":{"s":[78,72,87,67]},"strides":{"list":{"s":[],"i":["1","1","1","1"],"f":[],"b":[],"type":[],"shape":[],"tensor":[],"func":[]}},"padding":{"s":[83,65,77,69]},"dilations":{"list":{"s":[],"i":["1","1","1","1"],"f":[],"b":[],"type":[],"shape":[],"tensor":[],"func":[]}},"T":{"type":1}},"name":"MobilenetV2/expanded_conv_11/depthwise/depthwise","op":"DepthwiseConv2dNative"},{"input":["MobilenetV2/expanded_conv_11/depthwise/depthwise","MobilenetV2/expanded_conv_11/depthwise/BatchNorm/FusedBatchNorm/Scaled"],"attr":{"T":{"type":1}},"name":"MobilenetV2/expanded_conv_11/depthwise/BatchNorm/FusedBatchNorm/Mul","op":"Mul"},{"input":["MobilenetV2/expanded_conv_11/depthwise/BatchNorm/FusedBatchNorm/Mul","MobilenetV2/expanded_conv_11/depthwise/BatchNorm/FusedBatchNorm/Offset"],"attr":{"T":{"type":1}},"name":"MobilenetV2/expanded_conv_11/depthwise/BatchNorm/FusedBatchNorm","op":"Add"},{"input":["MobilenetV2/expanded_conv_11/depthwise/BatchNorm/FusedBatchNorm"],"attr":{"T":{"type":1}},"name":"MobilenetV2/expanded_conv_11/depthwise/Relu6","op":"Relu6"},{"input":["MobilenetV2/expanded_conv_11/depthwise/Relu6","MobilenetV2/expanded_conv_11/project/Conv2D/merged_input"],"attr":{"dilations":{"list":{"s":[],"i":["1","1","1","1"],"f":[],"b":[],"type":[],"shape":[],"tensor":[],"func":[]}},"T":{"type":1},"data_format":{"s":[78,72,87,67]},"strides":{"list":{"s":[],"i":["1","1","1","1"],"f":[],"b":[],"type":[],"shape":[],"tensor":[],"func":[]}},"use_cudnn_on_gpu":{"b":true},"padding":{"s":[83,65,77,69]}},"name":"MobilenetV2/expanded_conv_11/project/BatchNorm/FusedBatchNorm/Mul","op":"Conv2D"},{"input":["MobilenetV2/expanded_conv_11/project/BatchNorm/FusedBatchNorm/Mul","MobilenetV2/expanded_conv_10/project/BatchNorm/FusedBatchNorm"],"attr":{"T":{"type":1},"N":{"i":"2"},"_grappler:ArithmeticOptimizer:AddOpsRewriteStage":{"b":true}},"name":"MobilenetV2/expanded_conv_11/ArithmeticOptimizer/AddOpsRewrite_Leaf_1_add","op":"AddN"},{"input":["MobilenetV2/expanded_conv_11/project/BatchNorm/FusedBatchNorm/Offset","MobilenetV2/expanded_conv_11/ArithmeticOptimizer/AddOpsRewrite_Leaf_1_add"],"attr":{"T":{"type":1},"_grappler:ArithmeticOptimizer:AddOpsRewriteStage":{"b":true}},"name":"MobilenetV2/expanded_conv_11/ArithmeticOptimizer/AddOpsRewrite_add","op":"Add"},{"input":["MobilenetV2/expanded_conv_11/ArithmeticOptimizer/AddOpsRewrite_add","MobilenetV2/expanded_conv_12/expand/Conv2D/merged_input"],"attr":{"padding":{"s":[83,65,77,69]},"dilations":{"list":{"s":[],"i":["1","1","1","1"],"f":[],"b":[],"type":[],"shape":[],"tensor":[],"func":[]}},"T":{"type":1},"data_format":{"s":[78,72,87,67]},"strides":{"list":{"s":[],"i":["1","1","1","1"],"f":[],"b":[],"type":[],"shape":[],"tensor":[],"func":[]}},"use_cudnn_on_gpu":{"b":true}},"name":"MobilenetV2/expanded_conv_12/expand/BatchNorm/FusedBatchNorm/Mul","op":"Conv2D"},{"input":["MobilenetV2/expanded_conv_12/expand/BatchNorm/FusedBatchNorm/Mul","MobilenetV2/expanded_conv_12/expand/BatchNorm/FusedBatchNorm/Offset"],"attr":{"T":{"type":1}},"name":"MobilenetV2/expanded_conv_12/expand/BatchNorm/FusedBatchNorm","op":"Add"},{"input":["MobilenetV2/expanded_conv_12/expand/BatchNorm/FusedBatchNorm"],"attr":{"T":{"type":1}},"name":"MobilenetV2/expanded_conv_12/expand/Relu6","op":"Relu6"},{"input":["MobilenetV2/expanded_conv_12/expand/Relu6","MobilenetV2/expanded_conv_12/depthwise/depthwise_weights"],"attr":{"strides":{"list":{"s":[],"i":["1","1","1","1"],"f":[],"b":[],"type":[],"shape":[],"tensor":[],"func":[]}},"data_format":{"s":[78,72,87,67]},"padding":{"s":[83,65,77,69]},"dilations":{"list":{"s":[],"i":["1","1","1","1"],"f":[],"b":[],"type":[],"shape":[],"tensor":[],"func":[]}},"T":{"type":1}},"name":"MobilenetV2/expanded_conv_12/depthwise/depthwise","op":"DepthwiseConv2dNative"},{"input":["MobilenetV2/expanded_conv_12/depthwise/depthwise","MobilenetV2/expanded_conv_12/depthwise/BatchNorm/FusedBatchNorm/Scaled"],"attr":{"T":{"type":1}},"name":"MobilenetV2/expanded_conv_12/depthwise/BatchNorm/FusedBatchNorm/Mul","op":"Mul"},{"input":["MobilenetV2/expanded_conv_12/depthwise/BatchNorm/FusedBatchNorm/Mul","MobilenetV2/expanded_conv_12/depthwise/BatchNorm/FusedBatchNorm/Offset"],"attr":{"T":{"type":1}},"name":"MobilenetV2/expanded_conv_12/depthwise/BatchNorm/FusedBatchNorm","op":"Add"},{"input":["MobilenetV2/expanded_conv_12/depthwise/BatchNorm/FusedBatchNorm"],"attr":{"T":{"type":1}},"name":"MobilenetV2/expanded_conv_12/depthwise/Relu6","op":"Relu6"},{"input":["MobilenetV2/expanded_conv_12/depthwise/Relu6","MobilenetV2/expanded_conv_12/project/Conv2D/merged_input"],"attr":{"dilations":{"list":{"s":[],"i":["1","1","1","1"],"f":[],"b":[],"type":[],"shape":[],"tensor":[],"func":[]}},"T":{"type":1},"strides":{"list":{"s":[],"i":["1","1","1","1"],"f":[],"b":[],"type":[],"shape":[],"tensor":[],"func":[]}},"data_format":{"s":[78,72,87,67]},"use_cudnn_on_gpu":{"b":true},"padding":{"s":[83,65,77,69]}},"name":"MobilenetV2/expanded_conv_12/project/BatchNorm/FusedBatchNorm/Mul","op":"Conv2D"},{"input":["MobilenetV2/expanded_conv_12/project/BatchNorm/FusedBatchNorm/Mul","MobilenetV2/expanded_conv_11/ArithmeticOptimizer/AddOpsRewrite_add"],"attr":{"T":{"type":1},"N":{"i":"2"},"_grappler:ArithmeticOptimizer:AddOpsRewriteStage":{"b":true}},"name":"MobilenetV2/expanded_conv_12/ArithmeticOptimizer/AddOpsRewrite_Leaf_1_add","op":"AddN"},{"input":["MobilenetV2/expanded_conv_12/project/BatchNorm/FusedBatchNorm/Offset","MobilenetV2/expanded_conv_12/ArithmeticOptimizer/AddOpsRewrite_Leaf_1_add"],"attr":{"T":{"type":1},"_grappler:ArithmeticOptimizer:AddOpsRewriteStage":{"b":true}},"name":"MobilenetV2/expanded_conv_12/ArithmeticOptimizer/AddOpsRewrite_add","op":"Add"},{"input":["MobilenetV2/expanded_conv_12/ArithmeticOptimizer/AddOpsRewrite_add","MobilenetV2/expanded_conv_13/expand/Conv2D/merged_input"],"attr":{"dilations":{"list":{"s":[],"i":["1","1","1","1"],"f":[],"b":[],"type":[],"shape":[],"tensor":[],"func":[]}},"T":{"type":1},"strides":{"list":{"s":[],"i":["1","1","1","1"],"f":[],"b":[],"type":[],"shape":[],"tensor":[],"func":[]}},"data_format":{"s":[78,72,87,67]},"use_cudnn_on_gpu":{"b":true},"padding":{"s":[83,65,77,69]}},"name":"MobilenetV2/expanded_conv_13/expand/BatchNorm/FusedBatchNorm/Mul","op":"Conv2D"},{"input":["MobilenetV2/expanded_conv_13/expand/BatchNorm/FusedBatchNorm/Mul","MobilenetV2/expanded_conv_13/expand/BatchNorm/FusedBatchNorm/Offset"],"attr":{"T":{"type":1}},"name":"MobilenetV2/expanded_conv_13/expand/BatchNorm/FusedBatchNorm","op":"Add"},{"input":["MobilenetV2/expanded_conv_13/expand/BatchNorm/FusedBatchNorm"],"attr":{"T":{"type":1}},"name":"MobilenetV2/expanded_conv_13/expand/Relu6","op":"Relu6"},{"input":["MobilenetV2/expanded_conv_13/expand/Relu6","MobilenetV2/expanded_conv_13/depthwise/depthwise_weights"],"attr":{"padding":{"s":[83,65,77,69]},"dilations":{"list":{"s":[],"i":["1","1","1","1"],"f":[],"b":[],"type":[],"shape":[],"tensor":[],"func":[]}},"T":{"type":1},"strides":{"list":{"s":[],"i":["1","1","1","1"],"f":[],"b":[],"type":[],"shape":[],"tensor":[],"func":[]}},"data_format":{"s":[78,72,87,67]}},"name":"MobilenetV2/expanded_conv_13/depthwise/depthwise","op":"DepthwiseConv2dNative"},{"input":["MobilenetV2/expanded_conv_13/depthwise/depthwise","MobilenetV2/expanded_conv_13/depthwise/BatchNorm/FusedBatchNorm/Scaled"],"attr":{"T":{"type":1}},"name":"MobilenetV2/expanded_conv_13/depthwise/BatchNorm/FusedBatchNorm/Mul","op":"Mul"},{"input":["MobilenetV2/expanded_conv_13/depthwise/BatchNorm/FusedBatchNorm/Mul","MobilenetV2/expanded_conv_13/depthwise/BatchNorm/FusedBatchNorm/Offset"],"attr":{"T":{"type":1}},"name":"MobilenetV2/expanded_conv_13/depthwise/BatchNorm/FusedBatchNorm","op":"Add"},{"input":["MobilenetV2/expanded_conv_13/depthwise/BatchNorm/FusedBatchNorm"],"attr":{"T":{"type":1}},"name":"MobilenetV2/expanded_conv_13/depthwise/Relu6","op":"Relu6"},{"input":["MobilenetV2/expanded_conv_13/depthwise/Relu6","MobilenetV2/expanded_conv_13/project/Conv2D/merged_input"],"attr":{"dilations":{"list":{"s":[],"i":["1","1","1","1"],"f":[],"b":[],"type":[],"shape":[],"tensor":[],"func":[]}},"T":{"type":1},"data_format":{"s":[78,72,87,67]},"strides":{"list":{"s":[],"i":["1","1","1","1"],"f":[],"b":[],"type":[],"shape":[],"tensor":[],"func":[]}},"use_cudnn_on_gpu":{"b":true},"padding":{"s":[83,65,77,69]}},"name":"MobilenetV2/expanded_conv_13/project/BatchNorm/FusedBatchNorm/Mul","op":"Conv2D"},{"input":["MobilenetV2/expanded_conv_13/project/BatchNorm/FusedBatchNorm/Mul","MobilenetV2/expanded_conv_13/project/BatchNorm/FusedBatchNorm/Offset"],"attr":{"T":{"type":1}},"name":"MobilenetV2/expanded_conv_13/project/BatchNorm/FusedBatchNorm","op":"Add"},{"input":["MobilenetV2/expanded_conv_13/project/BatchNorm/FusedBatchNorm","MobilenetV2/expanded_conv_14/expand/Conv2D/merged_input"],"attr":{"dilations":{"list":{"s":[],"i":["1","1","1","1"],"f":[],"b":[],"type":[],"shape":[],"tensor":[],"func":[]}},"T":{"type":1},"data_format":{"s":[78,72,87,67]},"strides":{"list":{"s":[],"i":["1","1","1","1"],"f":[],"b":[],"type":[],"shape":[],"tensor":[],"func":[]}},"use_cudnn_on_gpu":{"b":true},"padding":{"s":[83,65,77,69]}},"name":"MobilenetV2/expanded_conv_14/expand/BatchNorm/FusedBatchNorm/Mul","op":"Conv2D"},{"input":["MobilenetV2/expanded_conv_14/expand/BatchNorm/FusedBatchNorm/Mul","MobilenetV2/expanded_conv_14/expand/BatchNorm/FusedBatchNorm/Offset"],"attr":{"T":{"type":1}},"name":"MobilenetV2/expanded_conv_14/expand/BatchNorm/FusedBatchNorm","op":"Add"},{"input":["MobilenetV2/expanded_conv_14/expand/BatchNorm/FusedBatchNorm"],"attr":{"T":{"type":1}},"name":"MobilenetV2/expanded_conv_14/expand/Relu6","op":"Relu6"},{"input":["MobilenetV2/expanded_conv_14/expand/Relu6","MobilenetV2/expanded_conv_15/depthwise/depthwise/SpaceToBatchND/block_shape","MobilenetV2/expanded_conv_15/depthwise/depthwise/SpaceToBatchND/paddings"],"attr":{"T":{"type":1},"Tpaddings":{"type":3},"Tblock_shape":{"type":3}},"name":"MobilenetV2/expanded_conv_14/depthwise/depthwise/SpaceToBatchND","op":"SpaceToBatchND"},{"input":["MobilenetV2/expanded_conv_14/depthwise/depthwise/SpaceToBatchND","MobilenetV2/expanded_conv_14/depthwise/depthwise_weights"],"attr":{"dilations":{"list":{"s":[],"i":["1","1","1","1"],"f":[],"b":[],"type":[],"shape":[],"tensor":[],"func":[]}},"padding":{"s":[86,65,76,73,68]},"T":{"type":1},"data_format":{"s":[78,72,87,67]},"strides":{"list":{"s":[],"i":["1","1","1","1"],"f":[],"b":[],"type":[],"shape":[],"tensor":[],"func":[]}}},"name":"MobilenetV2/expanded_conv_14/depthwise/depthwise","op":"DepthwiseConv2dNative"},{"input":["MobilenetV2/expanded_conv_14/depthwise/depthwise","MobilenetV2/expanded_conv_15/depthwise/depthwise/SpaceToBatchND/block_shape","MobilenetV2/expanded_conv_15/depthwise/depthwise/BatchToSpaceND/crops"],"attr":{"Tcrops":{"type":3},"T":{"type":1},"Tblock_shape":{"type":3}},"name":"MobilenetV2/expanded_conv_14/depthwise/depthwise/BatchToSpaceND","op":"BatchToSpaceND"},{"input":["MobilenetV2/expanded_conv_14/depthwise/depthwise/BatchToSpaceND","MobilenetV2/expanded_conv_14/depthwise/BatchNorm/FusedBatchNorm/Scaled"],"attr":{"T":{"type":1}},"name":"MobilenetV2/expanded_conv_14/depthwise/BatchNorm/FusedBatchNorm/Mul","op":"Mul"},{"input":["MobilenetV2/expanded_conv_14/depthwise/BatchNorm/FusedBatchNorm/Mul","MobilenetV2/expanded_conv_14/depthwise/BatchNorm/FusedBatchNorm/Offset"],"attr":{"T":{"type":1}},"name":"MobilenetV2/expanded_conv_14/depthwise/BatchNorm/FusedBatchNorm","op":"Add"},{"input":["MobilenetV2/expanded_conv_14/depthwise/BatchNorm/FusedBatchNorm"],"attr":{"T":{"type":1}},"name":"MobilenetV2/expanded_conv_14/depthwise/Relu6","op":"Relu6"},{"input":["MobilenetV2/expanded_conv_14/depthwise/Relu6","MobilenetV2/expanded_conv_14/project/Conv2D/merged_input"],"attr":{"dilations":{"list":{"s":[],"i":["1","1","1","1"],"f":[],"b":[],"type":[],"shape":[],"tensor":[],"func":[]}},"T":{"type":1},"data_format":{"s":[78,72,87,67]},"strides":{"list":{"s":[],"i":["1","1","1","1"],"f":[],"b":[],"type":[],"shape":[],"tensor":[],"func":[]}},"use_cudnn_on_gpu":{"b":true},"padding":{"s":[83,65,77,69]}},"name":"MobilenetV2/expanded_conv_14/project/BatchNorm/FusedBatchNorm/Mul","op":"Conv2D"},{"input":["MobilenetV2/expanded_conv_14/project/BatchNorm/FusedBatchNorm/Mul","MobilenetV2/expanded_conv_14/project/BatchNorm/FusedBatchNorm/Offset"],"attr":{"T":{"type":1}},"name":"MobilenetV2/expanded_conv_14/project/BatchNorm/FusedBatchNorm","op":"Add"},{"input":["MobilenetV2/expanded_conv_14/project/BatchNorm/FusedBatchNorm","MobilenetV2/expanded_conv_13/project/BatchNorm/FusedBatchNorm"],"attr":{"T":{"type":1}},"name":"MobilenetV2/expanded_conv_14/add","op":"Add"},{"input":["MobilenetV2/expanded_conv_14/add","MobilenetV2/expanded_conv_15/expand/Conv2D/merged_input"],"attr":{"padding":{"s":[83,65,77,69]},"dilations":{"list":{"s":[],"i":["1","1","1","1"],"f":[],"b":[],"type":[],"shape":[],"tensor":[],"func":[]}},"T":{"type":1},"strides":{"list":{"s":[],"i":["1","1","1","1"],"f":[],"b":[],"type":[],"shape":[],"tensor":[],"func":[]}},"data_format":{"s":[78,72,87,67]},"use_cudnn_on_gpu":{"b":true}},"name":"MobilenetV2/expanded_conv_15/expand/BatchNorm/FusedBatchNorm/Mul","op":"Conv2D"},{"input":["MobilenetV2/expanded_conv_15/expand/BatchNorm/FusedBatchNorm/Mul","MobilenetV2/expanded_conv_15/expand/BatchNorm/FusedBatchNorm/Offset"],"attr":{"T":{"type":1}},"name":"MobilenetV2/expanded_conv_15/expand/BatchNorm/FusedBatchNorm","op":"Add"},{"input":["MobilenetV2/expanded_conv_15/expand/BatchNorm/FusedBatchNorm"],"attr":{"T":{"type":1}},"name":"MobilenetV2/expanded_conv_15/expand/Relu6","op":"Relu6"},{"input":["MobilenetV2/expanded_conv_15/expand/Relu6","MobilenetV2/expanded_conv_15/depthwise/depthwise/SpaceToBatchND/block_shape","MobilenetV2/expanded_conv_15/depthwise/depthwise/SpaceToBatchND/paddings"],"attr":{"T":{"type":1},"Tpaddings":{"type":3},"Tblock_shape":{"type":3}},"name":"MobilenetV2/expanded_conv_15/depthwise/depthwise/SpaceToBatchND","op":"SpaceToBatchND"},{"input":["MobilenetV2/expanded_conv_15/depthwise/depthwise/SpaceToBatchND","MobilenetV2/expanded_conv_15/depthwise/depthwise_weights"],"attr":{"padding":{"s":[86,65,76,73,68]},"dilations":{"list":{"s":[],"i":["1","1","1","1"],"f":[],"b":[],"type":[],"shape":[],"tensor":[],"func":[]}},"T":{"type":1},"strides":{"list":{"s":[],"i":["1","1","1","1"],"f":[],"b":[],"type":[],"shape":[],"tensor":[],"func":[]}},"data_format":{"s":[78,72,87,67]}},"name":"MobilenetV2/expanded_conv_15/depthwise/depthwise","op":"DepthwiseConv2dNative"},{"input":["MobilenetV2/expanded_conv_15/depthwise/depthwise","MobilenetV2/expanded_conv_15/depthwise/depthwise/SpaceToBatchND/block_shape","MobilenetV2/expanded_conv_15/depthwise/depthwise/BatchToSpaceND/crops"],"attr":{"Tblock_shape":{"type":3},"Tcrops":{"type":3},"T":{"type":1}},"name":"MobilenetV2/expanded_conv_15/depthwise/depthwise/BatchToSpaceND","op":"BatchToSpaceND"},{"input":["MobilenetV2/expanded_conv_15/depthwise/depthwise/BatchToSpaceND","MobilenetV2/expanded_conv_15/depthwise/BatchNorm/FusedBatchNorm/Scaled"],"attr":{"T":{"type":1}},"name":"MobilenetV2/expanded_conv_15/depthwise/BatchNorm/FusedBatchNorm/Mul","op":"Mul"},{"input":["MobilenetV2/expanded_conv_15/depthwise/BatchNorm/FusedBatchNorm/Mul","MobilenetV2/expanded_conv_15/depthwise/BatchNorm/FusedBatchNorm/Offset"],"attr":{"T":{"type":1}},"name":"MobilenetV2/expanded_conv_15/depthwise/BatchNorm/FusedBatchNorm","op":"Add"},{"input":["MobilenetV2/expanded_conv_15/depthwise/BatchNorm/FusedBatchNorm"],"attr":{"T":{"type":1}},"name":"MobilenetV2/expanded_conv_15/depthwise/Relu6","op":"Relu6"},{"input":["MobilenetV2/expanded_conv_15/depthwise/Relu6","MobilenetV2/expanded_conv_15/project/Conv2D/merged_input"],"attr":{"dilations":{"list":{"s":[],"i":["1","1","1","1"],"f":[],"b":[],"type":[],"shape":[],"tensor":[],"func":[]}},"T":{"type":1},"strides":{"list":{"s":[],"i":["1","1","1","1"],"f":[],"b":[],"type":[],"shape":[],"tensor":[],"func":[]}},"data_format":{"s":[78,72,87,67]},"use_cudnn_on_gpu":{"b":true},"padding":{"s":[83,65,77,69]}},"name":"MobilenetV2/expanded_conv_15/project/BatchNorm/FusedBatchNorm/Mul","op":"Conv2D"},{"input":["MobilenetV2/expanded_conv_15/project/BatchNorm/FusedBatchNorm/Mul","MobilenetV2/expanded_conv_15/project/BatchNorm/FusedBatchNorm/Offset"],"attr":{"T":{"type":1}},"name":"MobilenetV2/expanded_conv_15/project/BatchNorm/FusedBatchNorm","op":"Add"},{"input":["MobilenetV2/expanded_conv_15/project/BatchNorm/FusedBatchNorm","MobilenetV2/expanded_conv_14/add"],"attr":{"T":{"type":1}},"name":"MobilenetV2/expanded_conv_15/add","op":"Add"},{"input":["MobilenetV2/expanded_conv_15/add","MobilenetV2/expanded_conv_16/expand/Conv2D/merged_input"],"attr":{"dilations":{"list":{"s":[],"i":["1","1","1","1"],"f":[],"b":[],"type":[],"shape":[],"tensor":[],"func":[]}},"T":{"type":1},"strides":{"list":{"s":[],"i":["1","1","1","1"],"f":[],"b":[],"type":[],"shape":[],"tensor":[],"func":[]}},"data_format":{"s":[78,72,87,67]},"use_cudnn_on_gpu":{"b":true},"padding":{"s":[83,65,77,69]}},"name":"MobilenetV2/expanded_conv_16/expand/BatchNorm/FusedBatchNorm/Mul","op":"Conv2D"},{"input":["MobilenetV2/expanded_conv_16/expand/BatchNorm/FusedBatchNorm/Mul","MobilenetV2/expanded_conv_16/expand/BatchNorm/FusedBatchNorm/Offset"],"attr":{"T":{"type":1}},"name":"MobilenetV2/expanded_conv_16/expand/BatchNorm/FusedBatchNorm","op":"Add"},{"input":["MobilenetV2/expanded_conv_16/expand/BatchNorm/FusedBatchNorm"],"attr":{"T":{"type":1}},"name":"MobilenetV2/expanded_conv_16/expand/Relu6","op":"Relu6"},{"input":["MobilenetV2/expanded_conv_16/expand/Relu6","MobilenetV2/expanded_conv_15/depthwise/depthwise/SpaceToBatchND/block_shape","MobilenetV2/expanded_conv_15/depthwise/depthwise/SpaceToBatchND/paddings"],"attr":{"T":{"type":1},"Tpaddings":{"type":3},"Tblock_shape":{"type":3}},"name":"MobilenetV2/expanded_conv_16/depthwise/depthwise/SpaceToBatchND","op":"SpaceToBatchND"},{"input":["MobilenetV2/expanded_conv_16/depthwise/depthwise/SpaceToBatchND","MobilenetV2/expanded_conv_16/depthwise/depthwise_weights"],"attr":{"dilations":{"list":{"s":[],"i":["1","1","1","1"],"f":[],"b":[],"type":[],"shape":[],"tensor":[],"func":[]}},"padding":{"s":[86,65,76,73,68]},"T":{"type":1},"data_format":{"s":[78,72,87,67]},"strides":{"list":{"s":[],"i":["1","1","1","1"],"f":[],"b":[],"type":[],"shape":[],"tensor":[],"func":[]}}},"name":"MobilenetV2/expanded_conv_16/depthwise/depthwise","op":"DepthwiseConv2dNative"},{"input":["MobilenetV2/expanded_conv_16/depthwise/depthwise","MobilenetV2/expanded_conv_15/depthwise/depthwise/SpaceToBatchND/block_shape","MobilenetV2/expanded_conv_15/depthwise/depthwise/BatchToSpaceND/crops"],"attr":{"Tcrops":{"type":3},"T":{"type":1},"Tblock_shape":{"type":3}},"name":"MobilenetV2/expanded_conv_16/depthwise/depthwise/BatchToSpaceND","op":"BatchToSpaceND"},{"input":["MobilenetV2/expanded_conv_16/depthwise/depthwise/BatchToSpaceND","MobilenetV2/expanded_conv_16/depthwise/BatchNorm/FusedBatchNorm/Scaled"],"attr":{"T":{"type":1}},"name":"MobilenetV2/expanded_conv_16/depthwise/BatchNorm/FusedBatchNorm/Mul","op":"Mul"},{"input":["MobilenetV2/expanded_conv_16/depthwise/BatchNorm/FusedBatchNorm/Mul","MobilenetV2/expanded_conv_16/depthwise/BatchNorm/FusedBatchNorm/Offset"],"attr":{"T":{"type":1}},"name":"MobilenetV2/expanded_conv_16/depthwise/BatchNorm/FusedBatchNorm","op":"Add"},{"input":["MobilenetV2/expanded_conv_16/depthwise/BatchNorm/FusedBatchNorm"],"attr":{"T":{"type":1}},"name":"MobilenetV2/expanded_conv_16/depthwise/Relu6","op":"Relu6"},{"input":["MobilenetV2/expanded_conv_16/depthwise/Relu6","MobilenetV2/expanded_conv_16/project/Conv2D/merged_input"],"attr":{"padding":{"s":[83,65,77,69]},"dilations":{"list":{"s":[],"i":["1","1","1","1"],"f":[],"b":[],"type":[],"shape":[],"tensor":[],"func":[]}},"T":{"type":1},"strides":{"list":{"s":[],"i":["1","1","1","1"],"f":[],"b":[],"type":[],"shape":[],"tensor":[],"func":[]}},"data_format":{"s":[78,72,87,67]},"use_cudnn_on_gpu":{"b":true}},"name":"MobilenetV2/expanded_conv_16/project/BatchNorm/FusedBatchNorm/Mul","op":"Conv2D"},{"input":["MobilenetV2/expanded_conv_16/project/BatchNorm/FusedBatchNorm/Mul","MobilenetV2/expanded_conv_16/project/BatchNorm/FusedBatchNorm/Offset"],"attr":{"T":{"type":1}},"name":"MobilenetV2/expanded_conv_16/project/BatchNorm/FusedBatchNorm","op":"Add"},{"input":["MobilenetV2/expanded_conv_16/project/BatchNorm/FusedBatchNorm"],"attr":{"strides":{"list":{"s":[],"i":["1","1","1","1"],"f":[],"b":[],"type":[],"shape":[],"tensor":[],"func":[]}},"data_format":{"s":[78,72,87,67]},"ksize":{"list":{"s":[],"i":["1","23","30","1"],"f":[],"b":[],"type":[],"shape":[],"tensor":[],"func":[]}},"padding":{"s":[86,65,76,73,68]},"T":{"type":1}},"name":"AvgPool2D/AvgPool","op":"AvgPool"},{"input":["MobilenetV2/expanded_conv_16/project/BatchNorm/FusedBatchNorm","aspp0/Conv2D/merged_input"],"attr":{"dilations":{"list":{"s":[],"i":["1","1","1","1"],"f":[],"b":[],"type":[],"shape":[],"tensor":[],"func":[]}},"T":{"type":1},"strides":{"list":{"s":[],"i":["1","1","1","1"],"f":[],"b":[],"type":[],"shape":[],"tensor":[],"func":[]}},"data_format":{"s":[78,72,87,67]},"use_cudnn_on_gpu":{"b":true},"padding":{"s":[83,65,77,69]}},"name":"aspp0/BatchNorm/FusedBatchNorm/Mul","op":"Conv2D"},{"input":["AvgPool2D/AvgPool","image_pooling/Conv2D/merged_input"],"attr":{"dilations":{"list":{"s":[],"i":["1","1","1","1"],"f":[],"b":[],"type":[],"shape":[],"tensor":[],"func":[]}},"T":{"type":1},"data_format":{"s":[78,72,87,67]},"strides":{"list":{"s":[],"i":["1","1","1","1"],"f":[],"b":[],"type":[],"shape":[],"tensor":[],"func":[]}},"use_cudnn_on_gpu":{"b":true},"padding":{"s":[83,65,77,69]}},"name":"image_pooling/BatchNorm/FusedBatchNorm/Mul","op":"Conv2D"},{"input":["aspp0/BatchNorm/FusedBatchNorm/Mul","aspp0/BatchNorm/FusedBatchNorm/Offset"],"attr":{"T":{"type":1}},"name":"aspp0/BatchNorm/FusedBatchNorm","op":"Add"},{"input":["image_pooling/BatchNorm/FusedBatchNorm/Mul","image_pooling/BatchNorm/FusedBatchNorm/Offset"],"attr":{"T":{"type":1}},"name":"image_pooling/BatchNorm/FusedBatchNorm","op":"Add"},{"input":["aspp0/BatchNorm/FusedBatchNorm"],"attr":{"T":{"type":1}},"name":"aspp0/Relu","op":"Relu"},{"input":["image_pooling/BatchNorm/FusedBatchNorm"],"attr":{"T":{"type":1}},"name":"image_pooling/Relu","op":"Relu"},{"input":["image_pooling/Relu","ResizeBilinear/size"],"attr":{"align_corners":{"b":true},"T":{"type":1}},"name":"ResizeBilinear","op":"ResizeBilinear"},{"input":["ResizeBilinear","aspp0/Relu","concat/axis"],"attr":{"Tidx":{"type":3},"T":{"type":1},"N":{"i":"2"}},"name":"concat","op":"ConcatV2"},{"input":["concat","concat_projection/Conv2D/merged_input"],"attr":{"dilations":{"list":{"s":[],"i":["1","1","1","1"],"f":[],"b":[],"type":[],"shape":[],"tensor":[],"func":[]}},"T":{"type":1},"strides":{"list":{"s":[],"i":["1","1","1","1"],"f":[],"b":[],"type":[],"shape":[],"tensor":[],"func":[]}},"data_format":{"s":[78,72,87,67]},"use_cudnn_on_gpu":{"b":true},"padding":{"s":[83,65,77,69]}},"name":"concat_projection/BatchNorm/FusedBatchNorm/Mul","op":"Conv2D"},{"input":["concat_projection/BatchNorm/FusedBatchNorm/Mul","concat_projection/BatchNorm/FusedBatchNorm/Offset"],"attr":{"T":{"type":1}},"name":"concat_projection/BatchNorm/FusedBatchNorm","op":"Add"},{"input":["concat_projection/BatchNorm/FusedBatchNorm"],"attr":{"T":{"type":1}},"name":"concat_projection/Relu","op":"Relu"},{"input":["concat_projection/Relu","decoder/ResizeBilinear/size"],"attr":{"T":{"type":1},"align_corners":{"b":true}},"name":"decoder/ResizeBilinear","op":"ResizeBilinear"},{"input":["decoder/ResizeBilinear","decoder/ResizeBilinear_1","concat/axis"],"attr":{"Tidx":{"type":3},"T":{"type":1},"N":{"i":"2"}},"name":"decoder/concat","op":"ConcatV2"},{"input":["decoder/concat","decoder/decoder_conv0_depthwise/depthwise_weights"],"attr":{"T":{"type":1},"data_format":{"s":[78,72,87,67]},"strides":{"list":{"s":[],"i":["1","1","1","1"],"f":[],"b":[],"type":[],"shape":[],"tensor":[],"func":[]}},"dilations":{"list":{"s":[],"i":["1","1","1","1"],"f":[],"b":[],"type":[],"shape":[],"tensor":[],"func":[]}},"padding":{"s":[83,65,77,69]}},"name":"decoder/decoder_conv0_depthwise/depthwise","op":"DepthwiseConv2dNative"},{"input":["decoder/decoder_conv0_depthwise/depthwise","decoder/decoder_conv0_depthwise/BatchNorm/FusedBatchNorm/Scaled"],"attr":{"T":{"type":1}},"name":"decoder/decoder_conv0_depthwise/BatchNorm/FusedBatchNorm/Mul","op":"Mul"},{"input":["decoder/decoder_conv0_depthwise/BatchNorm/FusedBatchNorm/Mul","decoder/decoder_conv0_depthwise/BatchNorm/FusedBatchNorm/Offset"],"attr":{"T":{"type":1}},"name":"decoder/decoder_conv0_depthwise/BatchNorm/FusedBatchNorm","op":"Add"},{"input":["decoder/decoder_conv0_depthwise/BatchNorm/FusedBatchNorm"],"attr":{"T":{"type":1}},"name":"decoder/decoder_conv0_depthwise/Relu","op":"Relu"},{"input":["decoder/decoder_conv0_depthwise/Relu","decoder/decoder_conv0_pointwise/Conv2D/merged_input"],"attr":{"dilations":{"list":{"s":[],"i":["1","1","1","1"],"f":[],"b":[],"type":[],"shape":[],"tensor":[],"func":[]}},"T":{"type":1},"strides":{"list":{"s":[],"i":["1","1","1","1"],"f":[],"b":[],"type":[],"shape":[],"tensor":[],"func":[]}},"data_format":{"s":[78,72,87,67]},"use_cudnn_on_gpu":{"b":true},"padding":{"s":[83,65,77,69]}},"name":"decoder/decoder_conv0_pointwise/BatchNorm/FusedBatchNorm/Mul","op":"Conv2D"},{"input":["decoder/decoder_conv0_pointwise/BatchNorm/FusedBatchNorm/Mul","decoder/decoder_conv0_pointwise/BatchNorm/FusedBatchNorm/Offset"],"attr":{"T":{"type":1}},"name":"decoder/decoder_conv0_pointwise/BatchNorm/FusedBatchNorm","op":"Add"},{"input":["decoder/decoder_conv0_pointwise/BatchNorm/FusedBatchNorm"],"attr":{"T":{"type":1}},"name":"decoder/decoder_conv0_pointwise/Relu","op":"Relu"},{"input":["decoder/decoder_conv0_pointwise/Relu","decoder/decoder_conv1_depthwise/depthwise_weights"],"attr":{"padding":{"s":[83,65,77,69]},"dilations":{"list":{"s":[],"i":["1","1","1","1"],"f":[],"b":[],"type":[],"shape":[],"tensor":[],"func":[]}},"T":{"type":1},"data_format":{"s":[78,72,87,67]},"strides":{"list":{"s":[],"i":["1","1","1","1"],"f":[],"b":[],"type":[],"shape":[],"tensor":[],"func":[]}}},"name":"decoder/decoder_conv1_depthwise/depthwise","op":"DepthwiseConv2dNative"},{"input":["decoder/decoder_conv1_depthwise/depthwise","decoder/decoder_conv1_depthwise/BatchNorm/FusedBatchNorm/Scaled"],"attr":{"T":{"type":1}},"name":"decoder/decoder_conv1_depthwise/BatchNorm/FusedBatchNorm/Mul","op":"Mul"},{"input":["decoder/decoder_conv1_depthwise/BatchNorm/FusedBatchNorm/Mul","decoder/decoder_conv1_depthwise/BatchNorm/FusedBatchNorm/Offset"],"attr":{"T":{"type":1}},"name":"decoder/decoder_conv1_depthwise/BatchNorm/FusedBatchNorm","op":"Add"},{"input":["decoder/decoder_conv1_depthwise/BatchNorm/FusedBatchNorm"],"attr":{"T":{"type":1}},"name":"decoder/decoder_conv1_depthwise/Relu","op":"Relu"},{"input":["decoder/decoder_conv1_depthwise/Relu","decoder/decoder_conv1_pointwise/Conv2D/merged_input"],"attr":{"dilations":{"list":{"s":[],"i":["1","1","1","1"],"f":[],"b":[],"type":[],"shape":[],"tensor":[],"func":[]}},"T":{"type":1},"strides":{"list":{"s":[],"i":["1","1","1","1"],"f":[],"b":[],"type":[],"shape":[],"tensor":[],"func":[]}},"data_format":{"s":[78,72,87,67]},"use_cudnn_on_gpu":{"b":true},"padding":{"s":[83,65,77,69]}},"name":"decoder/decoder_conv1_pointwise/BatchNorm/FusedBatchNorm/Mul","op":"Conv2D"},{"input":["decoder/decoder_conv1_pointwise/BatchNorm/FusedBatchNorm/Mul","decoder/decoder_conv1_pointwise/BatchNorm/FusedBatchNorm/Offset"],"attr":{"T":{"type":1}},"name":"decoder/decoder_conv1_pointwise/BatchNorm/FusedBatchNorm","op":"Add"},{"input":["decoder/decoder_conv1_pointwise/BatchNorm/FusedBatchNorm"],"attr":{"T":{"type":1}},"name":"decoder/decoder_conv1_pointwise/Relu","op":"Relu"},{"input":["decoder/decoder_conv1_pointwise/Relu","logits/semantic/weights"],"attr":{"T":{"type":1},"data_format":{"s":[78,72,87,67]},"strides":{"list":{"s":[],"i":["1","1","1","1"],"f":[],"b":[],"type":[],"shape":[],"tensor":[],"func":[]}},"use_cudnn_on_gpu":{"b":true},"padding":{"s":[83,65,77,69]},"dilations":{"list":{"s":[],"i":["1","1","1","1"],"f":[],"b":[],"type":[],"shape":[],"tensor":[],"func":[]}}},"name":"logits/semantic/Conv2D","op":"Conv2D"},{"input":["logits/semantic/Conv2D","logits/semantic/biases"],"attr":{"data_format":{"s":[78,72,87,67]},"T":{"type":1}},"name":"logits/semantic/BiasAdd","op":"BiasAdd"},{"input":["logits/semantic/BiasAdd","decoder/ResizeBilinear/size"],"attr":{"align_corners":{"b":true},"T":{"type":1}},"name":"ResizeBilinear_1","op":"ResizeBilinear"},{"input":["ResizeBilinear_1","strided_slice_6"],"attr":{"T":{"type":1},"align_corners":{"b":true}},"name":"ResizeBilinear_2","op":"ResizeBilinear"},{"input":["ResizeBilinear_2","concat/axis"],"attr":{"output_type":{"type":9},"Tidx":{"type":3},"T":{"type":1}},"name":"ArgMax","op":"ArgMax"},{"input":["ArgMax"],"attr":{"Truncate":{"b":false},"DstT":{"type":1},"SrcT":{"type":9}},"name":"Cast_1","op":"Cast"},{"input":["Cast_1","Slice/begin","Slice/size"],"attr":{"T":{"type":1},"Index":{"type":3}},"name":"Slice","op":"Slice"},{"input":["Slice","concat/axis"],"attr":{"Tdim":{"type":3},"T":{"type":1}},"name":"ExpandDims_1","op":"ExpandDims"},{"input":["ExpandDims_1","strided_slice"],"attr":{"align_corners":{"b":true},"T":{"type":1}},"name":"resize/ResizeNearestNeighbor","op":"ResizeNearestNeighbor"},{"input":["resize/ResizeNearestNeighbor"],"attr":{"T":{"type":1},"squeeze_dims":{"list":{"s":[],"i":["3"],"f":[],"b":[],"type":[],"shape":[],"tensor":[],"func":[]}}},"name":"Squeeze_1","op":"Squeeze"},{"input":["Squeeze_1"],"attr":{"DstT":{"type":3},"SrcT":{"type":1},"Truncate":{"b":false}},"name":"Cast_2","op":"Cast"},{"input":["Cast_2"],"attr":{"T":{"type":3}},"name":"SemanticPredictions","op":"Identity"}],"library":{"function":[],"gradient":[]},"versions":{"badConsumers":[]}},"weightsManifest":[{"paths":["group1-shard1of3","group1-shard2of3","group1-shard3of3"],"weights":[{"name":"image_pooling/Conv2D/merged_input","shape":[1,1,320,256],"dtype":"float32"},{"name":"image_pooling/BatchNorm/FusedBatchNorm/Offset","shape":[256],"dtype":"float32"},{"name":"ResizeBilinear/size","shape":[2],"dtype":"int32"},{"name":"MobilenetV2/expanded_conv_15/expand/Conv2D/merged_input","shape":[1,1,160,960],"dtype":"float32"},{"name":"MobilenetV2/expanded_conv_15/expand/BatchNorm/FusedBatchNorm/Offset","shape":[960],"dtype":"float32"},{"name":"MobilenetV2/expanded_conv_15/depthwise/depthwise_weights","shape":[3,3,960,1],"dtype":"float32"},{"name":"MobilenetV2/expanded_conv_15/depthwise/BatchNorm/FusedBatchNorm/Scaled","shape":[960],"dtype":"float32"},{"name":"MobilenetV2/expanded_conv_15/depthwise/BatchNorm/FusedBatchNorm/Offset","shape":[960],"dtype":"float32"},{"name":"MobilenetV2/expanded_conv_15/project/Conv2D/merged_input","shape":[1,1,960,160],"dtype":"float32"},{"name":"MobilenetV2/expanded_conv_15/project/BatchNorm/FusedBatchNorm/Offset","shape":[160],"dtype":"float32"},{"name":"MobilenetV2/expanded_conv_14/expand/Conv2D/merged_input","shape":[1,1,160,960],"dtype":"float32"},{"name":"MobilenetV2/expanded_conv_14/expand/BatchNorm/FusedBatchNorm/Offset","shape":[960],"dtype":"float32"},{"name":"MobilenetV2/expanded_conv_14/depthwise/depthwise_weights","shape":[3,3,960,1],"dtype":"float32"},{"name":"MobilenetV2/expanded_conv_14/depthwise/BatchNorm/FusedBatchNorm/Scaled","shape":[960],"dtype":"float32"},{"name":"MobilenetV2/expanded_conv_14/depthwise/BatchNorm/FusedBatchNorm/Offset","shape":[960],"dtype":"float32"},{"name":"MobilenetV2/expanded_conv_14/project/Conv2D/merged_input","shape":[1,1,960,160],"dtype":"float32"},{"name":"MobilenetV2/expanded_conv_14/project/BatchNorm/FusedBatchNorm/Offset","shape":[160],"dtype":"float32"},{"name":"MobilenetV2/expanded_conv_12/project/BatchNorm/FusedBatchNorm/Offset","shape":[96],"dtype":"float32"},{"name":"MobilenetV2/expanded_conv_12/expand/Conv2D/merged_input","shape":[1,1,96,576],"dtype":"float32"},{"name":"MobilenetV2/expanded_conv_12/expand/BatchNorm/FusedBatchNorm/Offset","shape":[576],"dtype":"float32"},{"name":"MobilenetV2/expanded_conv_12/depthwise/depthwise_weights","shape":[3,3,576,1],"dtype":"float32"},{"name":"MobilenetV2/expanded_conv_12/depthwise/BatchNorm/FusedBatchNorm/Scaled","shape":[576],"dtype":"float32"},{"name":"MobilenetV2/expanded_conv_12/depthwise/BatchNorm/FusedBatchNorm/Offset","shape":[576],"dtype":"float32"},{"name":"MobilenetV2/expanded_conv_12/project/Conv2D/merged_input","shape":[1,1,576,96],"dtype":"float32"},{"name":"MobilenetV2/expanded_conv_11/project/BatchNorm/FusedBatchNorm/Offset","shape":[96],"dtype":"float32"},{"name":"MobilenetV2/expanded_conv_11/expand/Conv2D/merged_input","shape":[1,1,96,576],"dtype":"float32"},{"name":"MobilenetV2/expanded_conv_11/expand/BatchNorm/FusedBatchNorm/Offset","shape":[576],"dtype":"float32"},{"name":"MobilenetV2/expanded_conv_11/depthwise/depthwise_weights","shape":[3,3,576,1],"dtype":"float32"},{"name":"MobilenetV2/expanded_conv_11/depthwise/BatchNorm/FusedBatchNorm/Scaled","shape":[576],"dtype":"float32"},{"name":"MobilenetV2/expanded_conv_11/depthwise/BatchNorm/FusedBatchNorm/Offset","shape":[576],"dtype":"float32"},{"name":"MobilenetV2/expanded_conv_11/project/Conv2D/merged_input","shape":[1,1,576,96],"dtype":"float32"},{"name":"MobilenetV2/expanded_conv_9/project/BatchNorm/FusedBatchNorm/Offset","shape":[64],"dtype":"float32"},{"name":"MobilenetV2/expanded_conv_9/expand/Conv2D/merged_input","shape":[1,1,64,384],"dtype":"float32"},{"name":"MobilenetV2/expanded_conv_9/expand/BatchNorm/FusedBatchNorm/Offset","shape":[384],"dtype":"float32"},{"name":"MobilenetV2/expanded_conv_9/depthwise/depthwise_weights","shape":[3,3,384,1],"dtype":"float32"},{"name":"MobilenetV2/expanded_conv_9/depthwise/BatchNorm/FusedBatchNorm/Scaled","shape":[384],"dtype":"float32"},{"name":"MobilenetV2/expanded_conv_9/depthwise/BatchNorm/FusedBatchNorm/Offset","shape":[384],"dtype":"float32"},{"name":"MobilenetV2/expanded_conv_9/project/Conv2D/merged_input","shape":[1,1,384,64],"dtype":"float32"},{"name":"MobilenetV2/expanded_conv_8/project/BatchNorm/FusedBatchNorm/Offset","shape":[64],"dtype":"float32"},{"name":"MobilenetV2/expanded_conv_8/expand/Conv2D/merged_input","shape":[1,1,64,384],"dtype":"float32"},{"name":"MobilenetV2/expanded_conv_8/expand/BatchNorm/FusedBatchNorm/Offset","shape":[384],"dtype":"float32"},{"name":"MobilenetV2/expanded_conv_8/depthwise/depthwise_weights","shape":[3,3,384,1],"dtype":"float32"},{"name":"MobilenetV2/expanded_conv_8/depthwise/BatchNorm/FusedBatchNorm/Scaled","shape":[384],"dtype":"float32"},{"name":"MobilenetV2/expanded_conv_8/depthwise/BatchNorm/FusedBatchNorm/Offset","shape":[384],"dtype":"float32"},{"name":"MobilenetV2/expanded_conv_8/project/Conv2D/merged_input","shape":[1,1,384,64],"dtype":"float32"},{"name":"MobilenetV2/expanded_conv_7/project/BatchNorm/FusedBatchNorm/Offset","shape":[64],"dtype":"float32"},{"name":"MobilenetV2/expanded_conv_7/expand/Conv2D/merged_input","shape":[1,1,64,384],"dtype":"float32"},{"name":"MobilenetV2/expanded_conv_7/expand/BatchNorm/FusedBatchNorm/Offset","shape":[384],"dtype":"float32"},{"name":"MobilenetV2/expanded_conv_7/depthwise/depthwise_weights","shape":[3,3,384,1],"dtype":"float32"},{"name":"MobilenetV2/expanded_conv_7/depthwise/BatchNorm/FusedBatchNorm/Scaled","shape":[384],"dtype":"float32"},{"name":"MobilenetV2/expanded_conv_7/depthwise/BatchNorm/FusedBatchNorm/Offset","shape":[384],"dtype":"float32"},{"name":"MobilenetV2/expanded_conv_7/project/Conv2D/merged_input","shape":[1,1,384,64],"dtype":"float32"},{"name":"MobilenetV2/expanded_conv_5/project/BatchNorm/FusedBatchNorm/Offset","shape":[32],"dtype":"float32"},{"name":"MobilenetV2/expanded_conv_5/expand/Conv2D/merged_input","shape":[1,1,32,192],"dtype":"float32"},{"name":"MobilenetV2/expanded_conv_5/expand/BatchNorm/FusedBatchNorm/Offset","shape":[192],"dtype":"float32"},{"name":"MobilenetV2/expanded_conv_5/depthwise/depthwise_weights","shape":[3,3,192,1],"dtype":"float32"},{"name":"MobilenetV2/expanded_conv_5/depthwise/BatchNorm/FusedBatchNorm/Scaled","shape":[192],"dtype":"float32"},{"name":"MobilenetV2/expanded_conv_5/depthwise/BatchNorm/FusedBatchNorm/Offset","shape":[192],"dtype":"float32"},{"name":"MobilenetV2/expanded_conv_5/project/Conv2D/merged_input","shape":[1,1,192,32],"dtype":"float32"},{"name":"MobilenetV2/expanded_conv_4/project/BatchNorm/FusedBatchNorm/Offset","shape":[32],"dtype":"float32"},{"name":"MobilenetV2/expanded_conv_4/expand/Conv2D/merged_input","shape":[1,1,32,192],"dtype":"float32"},{"name":"MobilenetV2/expanded_conv_4/expand/BatchNorm/FusedBatchNorm/Offset","shape":[192],"dtype":"float32"},{"name":"MobilenetV2/expanded_conv_4/depthwise/depthwise_weights","shape":[3,3,192,1],"dtype":"float32"},{"name":"MobilenetV2/expanded_conv_4/depthwise/BatchNorm/FusedBatchNorm/Scaled","shape":[192],"dtype":"float32"},{"name":"MobilenetV2/expanded_conv_4/depthwise/BatchNorm/FusedBatchNorm/Offset","shape":[192],"dtype":"float32"},{"name":"MobilenetV2/expanded_conv_4/project/Conv2D/merged_input","shape":[1,1,192,32],"dtype":"float32"},{"name":"MobilenetV2/expanded_conv_2/project/BatchNorm/FusedBatchNorm/Offset","shape":[24],"dtype":"float32"},{"name":"MobilenetV2/expanded_conv_2/project/Conv2D/merged_input","shape":[1,1,144,24],"dtype":"float32"},{"name":"MobilenetV2/expanded_conv_3/expand/Conv2D/merged_input","shape":[1,1,24,144],"dtype":"float32"},{"name":"MobilenetV2/expanded_conv_3/expand/BatchNorm/FusedBatchNorm/Offset","shape":[144],"dtype":"float32"},{"name":"MobilenetV2/expanded_conv_3/depthwise/depthwise_weights","shape":[3,3,144,1],"dtype":"float32"},{"name":"MobilenetV2/expanded_conv_3/depthwise/BatchNorm/FusedBatchNorm/Scaled","shape":[144],"dtype":"float32"},{"name":"MobilenetV2/expanded_conv_3/depthwise/BatchNorm/FusedBatchNorm/Offset","shape":[144],"dtype":"float32"},{"name":"MobilenetV2/expanded_conv_3/project/Conv2D/merged_input","shape":[1,1,144,32],"dtype":"float32"},{"name":"MobilenetV2/expanded_conv_3/project/BatchNorm/FusedBatchNorm/Offset","shape":[32],"dtype":"float32"},{"name":"MobilenetV2/expanded_conv_6/expand/Conv2D/merged_input","shape":[1,1,32,192],"dtype":"float32"},{"name":"MobilenetV2/expanded_conv_6/expand/BatchNorm/FusedBatchNorm/Offset","shape":[192],"dtype":"float32"},{"name":"MobilenetV2/expanded_conv_6/depthwise/depthwise_weights","shape":[3,3,192,1],"dtype":"float32"},{"name":"MobilenetV2/expanded_conv_6/depthwise/BatchNorm/FusedBatchNorm/Scaled","shape":[192],"dtype":"float32"},{"name":"MobilenetV2/expanded_conv_6/depthwise/BatchNorm/FusedBatchNorm/Offset","shape":[192],"dtype":"float32"},{"name":"MobilenetV2/expanded_conv_6/project/Conv2D/merged_input","shape":[1,1,192,64],"dtype":"float32"},{"name":"MobilenetV2/expanded_conv_6/project/BatchNorm/FusedBatchNorm/Offset","shape":[64],"dtype":"float32"},{"name":"MobilenetV2/expanded_conv_10/expand/Conv2D/merged_input","shape":[1,1,64,384],"dtype":"float32"},{"name":"MobilenetV2/expanded_conv_10/expand/BatchNorm/FusedBatchNorm/Offset","shape":[384],"dtype":"float32"},{"name":"MobilenetV2/expanded_conv_10/depthwise/depthwise_weights","shape":[3,3,384,1],"dtype":"float32"},{"name":"MobilenetV2/expanded_conv_10/depthwise/BatchNorm/FusedBatchNorm/Scaled","shape":[384],"dtype":"float32"},{"name":"MobilenetV2/expanded_conv_10/depthwise/BatchNorm/FusedBatchNorm/Offset","shape":[384],"dtype":"float32"},{"name":"MobilenetV2/expanded_conv_10/project/Conv2D/merged_input","shape":[1,1,384,96],"dtype":"float32"},{"name":"MobilenetV2/expanded_conv_10/project/BatchNorm/FusedBatchNorm/Offset","shape":[96],"dtype":"float32"},{"name":"MobilenetV2/expanded_conv_13/expand/Conv2D/merged_input","shape":[1,1,96,576],"dtype":"float32"},{"name":"MobilenetV2/expanded_conv_13/expand/BatchNorm/FusedBatchNorm/Offset","shape":[576],"dtype":"float32"},{"name":"MobilenetV2/expanded_conv_13/depthwise/depthwise_weights","shape":[3,3,576,1],"dtype":"float32"},{"name":"MobilenetV2/expanded_conv_13/depthwise/BatchNorm/FusedBatchNorm/Scaled","shape":[576],"dtype":"float32"},{"name":"MobilenetV2/expanded_conv_13/depthwise/BatchNorm/FusedBatchNorm/Offset","shape":[576],"dtype":"float32"},{"name":"MobilenetV2/expanded_conv_13/project/Conv2D/merged_input","shape":[1,1,576,160],"dtype":"float32"},{"name":"MobilenetV2/expanded_conv_13/project/BatchNorm/FusedBatchNorm/Offset","shape":[160],"dtype":"float32"},{"name":"MobilenetV2/expanded_conv_16/expand/Conv2D/merged_input","shape":[1,1,160,960],"dtype":"float32"},{"name":"MobilenetV2/expanded_conv_16/expand/BatchNorm/FusedBatchNorm/Offset","shape":[960],"dtype":"float32"},{"name":"MobilenetV2/expanded_conv_15/depthwise/depthwise/SpaceToBatchND/paddings","shape":[2,2],"dtype":"int32"},{"name":"MobilenetV2/expanded_conv_16/depthwise/depthwise_weights","shape":[3,3,960,1],"dtype":"float32"},{"name":"MobilenetV2/expanded_conv_15/depthwise/depthwise/SpaceToBatchND/block_shape","shape":[2],"dtype":"int32"},{"name":"MobilenetV2/expanded_conv_15/depthwise/depthwise/BatchToSpaceND/crops","shape":[2,2],"dtype":"int32"},{"name":"MobilenetV2/expanded_conv_16/depthwise/BatchNorm/FusedBatchNorm/Scaled","shape":[960],"dtype":"float32"},{"name":"MobilenetV2/expanded_conv_16/depthwise/BatchNorm/FusedBatchNorm/Offset","shape":[960],"dtype":"float32"},{"name":"MobilenetV2/expanded_conv_16/project/Conv2D/merged_input","shape":[1,1,960,320],"dtype":"float32"},{"name":"MobilenetV2/expanded_conv_16/project/BatchNorm/FusedBatchNorm/Offset","shape":[320],"dtype":"float32"},{"name":"aspp0/Conv2D/merged_input","shape":[1,1,320,256],"dtype":"float32"},{"name":"aspp0/BatchNorm/FusedBatchNorm/Offset","shape":[256],"dtype":"float32"},{"name":"concat_projection/Conv2D/merged_input","shape":[1,1,512,256],"dtype":"float32"},{"name":"concat_projection/BatchNorm/FusedBatchNorm/Offset","shape":[256],"dtype":"float32"},{"name":"mul/x","shape":[],"dtype":"float32"},{"name":"sub/x","shape":[],"dtype":"int32"},{"name":"sub_1/x","shape":[],"dtype":"int32"},{"name":"stack_2","shape":[2],"dtype":"int32"},{"name":"Reshape","shape":[1,1,3],"dtype":"float32"},{"name":"stack/0","shape":[],"dtype":"int32"},{"name":"sub_7/y","shape":[],"dtype":"float32"},{"name":"MobilenetV2/Conv/Conv2D/merged_input","shape":[3,3,3,32],"dtype":"float32"},{"name":"MobilenetV2/Conv/BatchNorm/FusedBatchNorm/Offset","shape":[32],"dtype":"float32"},{"name":"MobilenetV2/expanded_conv/depthwise/depthwise_weights","shape":[3,3,32,1],"dtype":"float32"},{"name":"MobilenetV2/expanded_conv/depthwise/BatchNorm/FusedBatchNorm/Scaled","shape":[32],"dtype":"float32"},{"name":"MobilenetV2/expanded_conv/depthwise/BatchNorm/FusedBatchNorm/Offset","shape":[32],"dtype":"float32"},{"name":"MobilenetV2/expanded_conv/project/Conv2D/merged_input","shape":[1,1,32,16],"dtype":"float32"},{"name":"MobilenetV2/expanded_conv/project/BatchNorm/FusedBatchNorm/Offset","shape":[16],"dtype":"float32"},{"name":"MobilenetV2/expanded_conv_1/expand/Conv2D/merged_input","shape":[1,1,16,96],"dtype":"float32"},{"name":"MobilenetV2/expanded_conv_1/expand/BatchNorm/FusedBatchNorm/Offset","shape":[96],"dtype":"float32"},{"name":"MobilenetV2/expanded_conv_1/depthwise/depthwise_weights","shape":[3,3,96,1],"dtype":"float32"},{"name":"MobilenetV2/expanded_conv_1/depthwise/BatchNorm/FusedBatchNorm/Scaled","shape":[96],"dtype":"float32"},{"name":"MobilenetV2/expanded_conv_1/depthwise/BatchNorm/FusedBatchNorm/Offset","shape":[96],"dtype":"float32"},{"name":"MobilenetV2/expanded_conv_1/project/Conv2D/merged_input","shape":[1,1,96,24],"dtype":"float32"},{"name":"MobilenetV2/expanded_conv_1/project/BatchNorm/FusedBatchNorm/Offset","shape":[24],"dtype":"float32"},{"name":"MobilenetV2/expanded_conv_2/expand/Conv2D/merged_input","shape":[1,1,24,144],"dtype":"float32"},{"name":"MobilenetV2/expanded_conv_2/expand/BatchNorm/FusedBatchNorm/Offset","shape":[144],"dtype":"float32"},{"name":"MobilenetV2/expanded_conv_2/depthwise/depthwise_weights","shape":[3,3,144,1],"dtype":"float32"},{"name":"MobilenetV2/expanded_conv_2/depthwise/BatchNorm/FusedBatchNorm/Scaled","shape":[144],"dtype":"float32"},{"name":"MobilenetV2/expanded_conv_2/depthwise/BatchNorm/FusedBatchNorm/Offset","shape":[144],"dtype":"float32"},{"name":"decoder/feature_projection0/Conv2D/merged_input","shape":[1,1,144,48],"dtype":"float32"},{"name":"decoder/feature_projection0/BatchNorm/FusedBatchNorm/Offset","shape":[48],"dtype":"float32"},{"name":"decoder/decoder_conv0_depthwise/depthwise_weights","shape":[3,3,304,1],"dtype":"float32"},{"name":"decoder/decoder_conv0_depthwise/BatchNorm/FusedBatchNorm/Scaled","shape":[304],"dtype":"float32"},{"name":"decoder/decoder_conv0_depthwise/BatchNorm/FusedBatchNorm/Offset","shape":[304],"dtype":"float32"},{"name":"decoder/decoder_conv0_pointwise/Conv2D/merged_input","shape":[1,1,304,256],"dtype":"float32"},{"name":"decoder/decoder_conv0_pointwise/BatchNorm/FusedBatchNorm/Offset","shape":[256],"dtype":"float32"},{"name":"decoder/decoder_conv1_depthwise/depthwise_weights","shape":[3,3,256,1],"dtype":"float32"},{"name":"decoder/decoder_conv1_depthwise/BatchNorm/FusedBatchNorm/Scaled","shape":[256],"dtype":"float32"},{"name":"decoder/decoder_conv1_depthwise/BatchNorm/FusedBatchNorm/Offset","shape":[256],"dtype":"float32"},{"name":"decoder/decoder_conv1_pointwise/Conv2D/merged_input","shape":[1,1,256,256],"dtype":"float32"},{"name":"decoder/decoder_conv1_pointwise/BatchNorm/FusedBatchNorm/Offset","shape":[256],"dtype":"float32"},{"name":"logits/semantic/weights","shape":[1,1,256,3],"dtype":"float32"},{"name":"logits/semantic/biases","shape":[3],"dtype":"float32"},{"name":"decoder/ResizeBilinear/size","shape":[2],"dtype":"int32"},{"name":"strided_slice_6","shape":[2],"dtype":"int32"},{"name":"Slice/begin","shape":[3],"dtype":"int32"},{"name":"Slice/size/0","shape":[],"dtype":"int32"},{"name":"strided_slice_1/stack","shape":[1],"dtype":"int32"},{"name":"strided_slice_2/stack_1","shape":[1],"dtype":"int32"},{"name":"concat/axis","shape":[],"dtype":"int32"},{"name":"strided_slice/stack_1","shape":[1],"dtype":"int32"},{"name":"strided_slice_2/stack","shape":[1],"dtype":"int32"}]}]}